…
snapshot_prefix: "vgg16_faster_rcnn"
average_loss: 100
iter_size: 2
I1104 00:24:47.137084 11165 solver.cpp:81] Creating training net from train_net file: models/imagenet/VGG16/faster_rcnn_end2end/train.prototxt
I1104 00:24:47.137918 11165 net.cpp:49] Initializing net from parameters: 
name: "VGG_ILSVRC_16_layers"
state {
  phase: TRAIN
}
layer {
  name: "input-data"
  type: "Python"
  top: "data"
  top: "im_info"
  top: "gt_boxes"
  python_param {
    module: "roi_data_layer.layer"
    layer: "RoIDataLayer"
    param_str: "\'num_classes\': 3"
  }
}
layer {
  name: "conv1_1"
  type: "Convolution"
  bottom: "data"
  top: "conv1_1"
  param {
    lr_mult: 0
    decay_mult: 0
  }
  param {
    lr_mult: 0
    decay_mult: 0
  }
  convolution_param {
    num_output: 64
    pad: 1
    kernel_size: 3
  }
}
layer {
  name: "relu1_1"
  type: "ReLU"
  bottom: "conv1_1"
  top: "conv1_1"
}
layer {
  name: "conv1_2"
  type: "Convolution"
  bottom: "conv1_1"
  top: "conv1_2"
  param {
    lr_mult: 0
    decay_mult: 0
  }
  param {
    lr_mult: 0
    decay_mult: 0
  }
  convolution_param {
    num_output: 64
    pad: 1
    kernel_size: 3
  }
}
layer {
  name: "relu1_2"
  type: "ReLU"
  bottom: "conv1_2"
  top: "conv1_2"
}
layer {
  name: "pool1"
  type: "Pooling"
  bottom: "conv1_2"
  top: "pool1"
  pooling_param {
    pool: MAX
    kernel_size: 2
    stride: 2
  }
}
layer {
  name: "conv2_1"
  type: "Convolution"
  bottom: "pool1"
  top: "conv2_1"
  param {
    lr_mult: 0
    decay_mult: 0
  }
  param {
    lr_mult: 0
    decay_mult: 0
  }
  convolution_param {
    num_output: 128
    pad: 1
    kernel_size: 3
  }
}
layer {
  name: "relu2_1"
  type: "ReLU"
  bottom: "conv2_1"
  top: "conv2_1"
}
layer {
  name: "conv2_2"
  type: "Convolution"
  bottom: "conv2_1"
  top: "conv2_2"
  param {
    lr_mult: 0
    decay_mult: 0
  }
  param {
    lr_mult: 0
    decay_mult: 0
  }
  convolution_param {
    num_output: 128
    pad: 1
    kernel_size: 3
  }
}
layer {
  name: "relu2_2"
  type: "ReLU"
  bottom: "conv2_2"
  top: "conv2_2"
}
layer {
  name: "pool2"
  type: "Pooling"
  bottom: "conv2_2"
  top: "pool2"
  pooling_param {
    pool: MAX
    kernel_size: 2
    stride: 2
  }
}
layer {
  name: "conv3_1"
  type: "Convolution"
  bottom: "pool2"
  top: "conv3_1"
  param {
    lr_mult: 1
  }
  param {
    lr_mult: 2
  }
  convolution_param {
    num_output: 256
    pad: 1
    kernel_size: 3
  }
}
layer {
  name: "relu3_1"
  type: "ReLU"
  bottom: "conv3_1"
  top: "conv3_1"
}
layer {
  name: "conv3_2"
  type: "Convolution"
  bottom: "conv3_1"
  top: "conv3_2"
  param {
    lr_mult: 1
  }
  param {
    lr_mult: 2
  }
  convolution_param {
    num_output: 256
    pad: 1
    kernel_size: 3
  }
}
layer {
  name: "relu3_2"
  type: "ReLU"
  bottom: "conv3_2"
  top: "conv3_2"
}
layer {
  name: "conv3_3"
  type: "Convolution"
  bottom: "conv3_2"
  top: "conv3_3"
  param {
    lr_mult: 1
  }
  param {
    lr_mult: 2
  }
  convolution_param {
    num_output: 256
    pad: 1
    kernel_size: 3
  }
}
layer {
  name: "relu3_3"
  type: "ReLU"
  bottom: "conv3_3"
  top: "conv3_3"
}
layer {
  name: "pool3"
  type: "Pooling"
  bottom: "conv3_3"
  top: "pool3"
  pooling_param {
    pool: MAX
    kernel_size: 2
    stride: 2
  }
}
layer {
  name: "conv4_1"
  type: "Convolution"
  bottom: "pool3"
  top: "conv4_1"
  param {
    lr_mult: 1
  }
  param {
    lr_mult: 2
  }
  convolution_param {
    num_output: 512
    pad: 1
    kernel_size: 3
  }
}
layer {
  name: "relu4_1"
  type: "ReLU"
  bottom: "conv4_1"
  top: "conv4_1"
}
layer {
  name: "conv4_2"
  type: "Convolution"
  bottom: "conv4_1"
  top: "conv4_2"
  param {
    lr_mult: 1
  }
  param {
    lr_mult: 2
  }
  convolution_param {
    num_output: 512
    pad: 1
    kernel_size: 3
  }
}
layer {
  name: "relu4_2"
  type: "ReLU"
  bottom: "conv4_2"
  top: "conv4_2"
}
layer {
  name: "conv4_3"
  type: "Convolution"
  bottom: "conv4_2"
  top: "conv4_3"
  param {
    lr_mult: 1
  }
  param {
    lr_mult: 2
  }
  convolution_param {
    num_output: 512
    pad: 1
    kernel_size: 3
  }
}
layer {
  name: "relu4_3"
  type: "ReLU"
  bottom: "conv4_3"
  top: "conv4_3"
}
layer {
  name: "pool4"
  type: "Pooling"
  bottom: "conv4_3"
  top: "pool4"
  pooling_param {
    pool: MAX
    kernel_size: 2
    stride: 2
  }
}
layer {
  name: "conv5_1"
  type: "Convolution"
  bottom: "pool4"
  top: "conv5_1"
  param {
    lr_mult: 1
  }
  param {
    lr_mult: 2
  }
  convolution_param {
    num_output: 512
    pad: 1
    kernel_size: 3
  }
}
layer {
  name: "relu5_1"
  type: "ReLU"
  bottom: "conv5_1"
  top: "conv5_1"
}
layer {
  name: "conv5_2"
  type: "Convolution"
  bottom: "conv5_1"
  top: "conv5_2"
  param {
    lr_mult: 1
  }
  param {
    lr_mult: 2
  }
  convolution_param {
    num_output: 512
    pad: 1
    kernel_size: 3
  }
}
layer {
  name: "relu5_2"
  type: "ReLU"
  bottom: "conv5_2"
  top: "conv5_2"
}
layer {
  name: "conv5_3"
  type: "Convolution"
  bottom: "conv5_2"
  top: "conv5_3"
  param {
    lr_mult: 1
  }
  param {
    lr_mult: 2
  }
  convolution_param {
    num_output: 512
    pad: 1
    kernel_size: 3
  }
}
layer {
  name: "relu5_3"
  type: "ReLU"
  bottom: "conv5_3"
  top: "conv5_3"
}
layer {
  name: "rpn_conv/3x3"
  type: "Convolution"
  bottom: "conv5_3"
  top: "rpn/output"
  param {
    lr_mult: 1
  }
  param {
    lr_mult: 2
  }
  convolution_param {
    num_output: 512
    pad: 1
    kernel_size: 3
    stride: 1
    weight_filler {
      type: "gaussian"
      std: 0.01
    }
    bias_filler {
      type: "constant"
      value: 0
    }
  }
}
layer {
  name: "rpn_relu/3x3"
  type: "ReLU"
  bottom: "rpn/output"
  top: "rpn/output"
}
layer {
  name: "rpn_cls_score"
  type: "Convolution"
  bottom: "rpn/output"
  top: "rpn_cls_score"
  param {
    lr_mult: 1
  }
  param {
    lr_mult: 2
  }
  convolution_param {
    num_output: 18
    pad: 0
    kernel_size: 1
    stride: 1
    weight_filler {
      type: "gaussian"
      std: 0.01
    }
    bias_filler {
      type: "constant"
      value: 0
    }
  }
}
layer {
  name: "rpn_bbox_pred"
  type: "Convolution"
  bottom: "rpn/output"
  top: "rpn_bbox_pred"
  param {
    lr_mult: 1
  }
  param {
    lr_mult: 2
  }
  convolution_param {
    num_output: 36
    pad: 0
    kernel_size: 1
    stride: 1
    weight_filler {
      type: "gaussian"
      std: 0.01
    }
    bias_filler {
      type: "constant"
      value: 0
    }
  }
}
layer {
  name: "rpn_cls_score_reshape"
  type: "Reshape"
  bottom: "rpn_cls_score"
  top: "rpn_cls_score_reshape"
  reshape_param {
    shape {
      dim: 0
      dim: 2
      dim: -1
      dim: 0
    }
  }
}
layer {
  name: "rpn-data"
  type: "Python"
  bottom: "rpn_cls_score"
  bottom: "gt_boxes"
  bottom: "im_info"
  bottom: "data"
  top: "rpn_labels"
  top: "rpn_bbox_targets"
  top: "rpn_bbox_inside_weights"
  top: "rpn_bbox_outside_weights"
  python_param {
    module: "rpn.anchor_target_layer"
    layer: "AnchorTargetLayer"
    param_str: "\'feat_stride\': 16"
  }
}
layer {
  name: "rpn_loss_cls"
  type: "SoftmaxWithLoss"
  bottom: "rpn_cls_score_reshape"
  bottom: "rpn_labels"
  top: "rpn_cls_loss"
  loss_weight: 1
  propagate_down: true
  propagate_down: false
  loss_param {
    ignore_label: -1
    normalize: true
  }
}
layer {
  name: "rpn_loss_bbox"
  type: "SmoothL1Loss"
  bottom: "rpn_bbox_pred"
  bottom: "rpn_bbox_targets"
  bottom: "rpn_bbox_inside_weights"
  bottom: "rpn_bbox_outside_weights"
  top: "rpn_loss_bbox"
  loss_weight: 1
  smooth_l1_loss_param {
    sigma: 3
  }
}
layer {
  name: "rpn_cls_prob"
  type: "Softmax"
  bottom: "rpn_cls_score_reshape"
  top: "rpn_cls_prob"
}
layer {
  name: "rpn_cls_prob_reshape"
  type: "Reshape"
  bottom: "rpn_cls_prob"
  top: "rpn_cls_prob_reshape"
  reshape_param {
    shape {
      dim: 0
      dim: 18
      dim: -1
      dim: 0
    }
  }
}
layer {
  name: "proposal"
  type: "Python"
  bottom: "rpn_cls_prob_reshape"
  bottom: "rpn_bbox_pred"
  bottom: "im_info"
  top: "rpn_rois"
  python_param {
    module: "rpn.proposal_layer"
    layer: "ProposalLayer"
    param_str: "\'feat_stride\': 16"
  }
}
layer {
  name: "roi-data"
  type: "Python"
  bottom: "rpn_rois"
  bottom: "gt_boxes"
  top: "rois"
  top: "labels"
  top: "bbox_targets"
  top: "bbox_inside_weights"
  top: "bbox_outside_weights"
  python_param {
    module: "rpn.proposal_target_layer"
    layer: "ProposalTargetLayer"
    param_str: "\'num_classes\': 3"
  }
}
layer {
  name: "roi_pool5"
  type: "ROIPooling"
  bottom: "conv5_3"
  bottom: "rois"
  top: "pool5"
  roi_pooling_param {
    pooled_h: 7
    pooled_w: 7
    spatial_scale: 0.0625
  }
}
layer {
  name: "fc6"
  type: "InnerProduct"
  bottom: "pool5"
  top: "fc6"
  param {
    lr_mult: 1
  }
  param {
    lr_mult: 2
  }
  inner_product_param {
    num_output: 4096
  }
}
layer {
  name: "relu6"
  type: "ReLU"
  bottom: "fc6"
  top: "fc6"
}
layer {
  name: "drop6"
  type: "Dropout"
  bottom: "fc6"
  top: "fc6"
  dropout_param {
    dropout_ratio: 0.5
  }
}
layer {
  name: "fc7"
  type: "InnerProduct"
  bottom: "fc6"
  top: "fc7"
  param {
    lr_mult: 1
  }
  param {
    lr_mult: 2
  }
  inner_product_param {
    num_output: 4096
  }
}
layer {
  name: "relu7"
  type: "ReLU"
  bottom: "fc7"
  top: "fc7"
}
layer {
  name: "drop7"
  type: "Dropout"
  bottom: "fc7"
  top: "fc7"
  dropout_param {
    dropout_ratio: 0.5
  }
}
layer {
  name: "cls_score"
  type: "InnerProduct"
  bottom: "fc7"
  top: "cls_score"
  param {
    lr_mult: 1
  }
  param {
    lr_mult: 2
  }
  inner_product_param {
    num_output: 3
    weight_filler {
      type: "gaussian"
      std: 0.01
    }
    bias_filler {
      type: "constant"
      value: 0
    }
  }
}
layer {
  name: "bbox_pred"
  type: "InnerProduct"
  bottom: "fc7"
  top: "bbox_pred"
  param {
    lr_mult: 1
  }
  param {
    lr_mult: 2
  }
  inner_product_param {
    num_output: 12
    weight_filler {
      type: "gaussian"
      std: 0.001
    }
    bias_filler {
      type: "constant"
      value: 0
    }
  }
}
layer {
  name: "loss_cls"
  type: "SoftmaxWithLoss"
  bottom: "cls_score"
  bottom: "labels"
  top: "loss_cls"
  loss_weight: 1
  propagate_down: true
  propagate_down: false
}
layer {
  name: "loss_bbox"
  type: "SmoothL1Loss"
  bottom: "bbox_pred"
  bottom: "bbox_targets"
  bottom: "bbox_inside_weights"
  bottom: "bbox_outside_weights"
  top: "loss_bbox"
  loss_weight: 1
}
I1104 00:24:47.138088 11165 layer_factory.hpp:77] Creating layer input-data
I1104 00:24:47.139173 11165 net.cpp:106] Creating Layer input-data
I1104 00:24:47.139183 11165 net.cpp:411] input-data -> data
I1104 00:24:47.139190 11165 net.cpp:411] input-data -> im_info
I1104 00:24:47.139195 11165 net.cpp:411] input-data -> gt_boxes
I1104 00:24:47.368957 11165 net.cpp:150] Setting up input-data
I1104 00:24:47.368981 11165 net.cpp:157] Top shape: 1 3 480 1000 (1440000)
I1104 00:24:47.368986 11165 net.cpp:157] Top shape: 1 3 (3)
I1104 00:24:47.368990 11165 net.cpp:157] Top shape: 1 4 (4)
I1104 00:24:47.368993 11165 net.cpp:165] Memory required for data: 5760028
I1104 00:24:47.368999 11165 layer_factory.hpp:77] Creating layer data_input-data_0_split
I1104 00:24:47.369007 11165 net.cpp:106] Creating Layer data_input-data_0_split
I1104 00:24:47.369011 11165 net.cpp:454] data_input-data_0_split <- data
I1104 00:24:47.369016 11165 net.cpp:411] data_input-data_0_split -> data_input-data_0_split_0
I1104 00:24:47.369024 11165 net.cpp:411] data_input-data_0_split -> data_input-data_0_split_1
I1104 00:24:47.369045 11165 net.cpp:150] Setting up data_input-data_0_split
I1104 00:24:47.369050 11165 net.cpp:157] Top shape: 1 3 480 1000 (1440000)
I1104 00:24:47.369055 11165 net.cpp:157] Top shape: 1 3 480 1000 (1440000)
I1104 00:24:47.369062 11165 net.cpp:165] Memory required for data: 17280028
I1104 00:24:47.369065 11165 layer_factory.hpp:77] Creating layer im_info_input-data_1_split
I1104 00:24:47.369069 11165 net.cpp:106] Creating Layer im_info_input-data_1_split
I1104 00:24:47.369072 11165 net.cpp:454] im_info_input-data_1_split <- im_info
I1104 00:24:47.369076 11165 net.cpp:411] im_info_input-data_1_split -> im_info_input-data_1_split_0
I1104 00:24:47.369081 11165 net.cpp:411] im_info_input-data_1_split -> im_info_input-data_1_split_1
I1104 00:24:47.369099 11165 net.cpp:150] Setting up im_info_input-data_1_split
I1104 00:24:47.369103 11165 net.cpp:157] Top shape: 1 3 (3)
I1104 00:24:47.369107 11165 net.cpp:157] Top shape: 1 3 (3)
I1104 00:24:47.369109 11165 net.cpp:165] Memory required for data: 17280052
I1104 00:24:47.369112 11165 layer_factory.hpp:77] Creating layer gt_boxes_input-data_2_split
I1104 00:24:47.369115 11165 net.cpp:106] Creating Layer gt_boxes_input-data_2_split
I1104 00:24:47.369118 11165 net.cpp:454] gt_boxes_input-data_2_split <- gt_boxes
I1104 00:24:47.369122 11165 net.cpp:411] gt_boxes_input-data_2_split -> gt_boxes_input-data_2_split_0
I1104 00:24:47.369127 11165 net.cpp:411] gt_boxes_input-data_2_split -> gt_boxes_input-data_2_split_1
I1104 00:24:47.369144 11165 net.cpp:150] Setting up gt_boxes_input-data_2_split
I1104 00:24:47.369148 11165 net.cpp:157] Top shape: 1 4 (4)
I1104 00:24:47.369153 11165 net.cpp:157] Top shape: 1 4 (4)
I1104 00:24:47.369154 11165 net.cpp:165] Memory required for data: 17280084
I1104 00:24:47.369158 11165 layer_factory.hpp:77] Creating layer conv1_1
I1104 00:24:47.369165 11165 net.cpp:106] Creating Layer conv1_1
I1104 00:24:47.369168 11165 net.cpp:454] conv1_1 <- data_input-data_0_split_0
I1104 00:24:47.369174 11165 net.cpp:411] conv1_1 -> conv1_1
I1104 00:24:47.370402 11165 net.cpp:150] Setting up conv1_1
I1104 00:24:47.370411 11165 net.cpp:157] Top shape: 1 64 480 1000 (30720000)
I1104 00:24:47.370414 11165 net.cpp:165] Memory required for data: 140160084
I1104 00:24:47.370422 11165 layer_factory.hpp:77] Creating layer relu1_1
I1104 00:24:47.370429 11165 net.cpp:106] Creating Layer relu1_1
I1104 00:24:47.370431 11165 net.cpp:454] relu1_1 <- conv1_1
I1104 00:24:47.370435 11165 net.cpp:397] relu1_1 -> conv1_1 (in-place)
I1104 00:24:47.370440 11165 net.cpp:150] Setting up relu1_1
I1104 00:24:47.370445 11165 net.cpp:157] Top shape: 1 64 480 1000 (30720000)
I1104 00:24:47.370446 11165 net.cpp:165] Memory required for data: 263040084
I1104 00:24:47.370450 11165 layer_factory.hpp:77] Creating layer conv1_2
I1104 00:24:47.370455 11165 net.cpp:106] Creating Layer conv1_2
I1104 00:24:47.370458 11165 net.cpp:454] conv1_2 <- conv1_1
I1104 00:24:47.370461 11165 net.cpp:411] conv1_2 -> conv1_2
I1104 00:24:47.371750 11165 net.cpp:150] Setting up conv1_2
I1104 00:24:47.371760 11165 net.cpp:157] Top shape: 1 64 480 1000 (30720000)
I1104 00:24:47.371763 11165 net.cpp:165] Memory required for data: 385920084
I1104 00:24:47.371770 11165 layer_factory.hpp:77] Creating layer relu1_2
I1104 00:24:47.371776 11165 net.cpp:106] Creating Layer relu1_2
I1104 00:24:47.371779 11165 net.cpp:454] relu1_2 <- conv1_2
I1104 00:24:47.371783 11165 net.cpp:397] relu1_2 -> conv1_2 (in-place)
I1104 00:24:47.371788 11165 net.cpp:150] Setting up relu1_2
I1104 00:24:47.371793 11165 net.cpp:157] Top shape: 1 64 480 1000 (30720000)
I1104 00:24:47.371794 11165 net.cpp:165] Memory required for data: 508800084
I1104 00:24:47.371798 11165 layer_factory.hpp:77] Creating layer pool1
I1104 00:24:47.371803 11165 net.cpp:106] Creating Layer pool1
I1104 00:24:47.371805 11165 net.cpp:454] pool1 <- conv1_2
I1104 00:24:47.371809 11165 net.cpp:411] pool1 -> pool1
I1104 00:24:47.371834 11165 net.cpp:150] Setting up pool1
I1104 00:24:47.371839 11165 net.cpp:157] Top shape: 1 64 240 500 (7680000)
I1104 00:24:47.371840 11165 net.cpp:165] Memory required for data: 539520084
I1104 00:24:47.371843 11165 layer_factory.hpp:77] Creating layer conv2_1
I1104 00:24:47.371848 11165 net.cpp:106] Creating Layer conv2_1
I1104 00:24:47.371850 11165 net.cpp:454] conv2_1 <- pool1
I1104 00:24:47.371860 11165 net.cpp:411] conv2_1 -> conv2_1
I1104 00:24:47.372496 11165 net.cpp:150] Setting up conv2_1
I1104 00:24:47.372505 11165 net.cpp:157] Top shape: 1 128 240 500 (15360000)
I1104 00:24:47.372509 11165 net.cpp:165] Memory required for data: 600960084
I1104 00:24:47.372515 11165 layer_factory.hpp:77] Creating layer relu2_1
I1104 00:24:47.372520 11165 net.cpp:106] Creating Layer relu2_1
I1104 00:24:47.372524 11165 net.cpp:454] relu2_1 <- conv2_1
I1104 00:24:47.372527 11165 net.cpp:397] relu2_1 -> conv2_1 (in-place)
I1104 00:24:47.372532 11165 net.cpp:150] Setting up relu2_1
I1104 00:24:47.372550 11165 net.cpp:157] Top shape: 1 128 240 500 (15360000)
I1104 00:24:47.372553 11165 net.cpp:165] Memory required for data: 662400084
I1104 00:24:47.372555 11165 layer_factory.hpp:77] Creating layer conv2_2
I1104 00:24:47.372560 11165 net.cpp:106] Creating Layer conv2_2
I1104 00:24:47.372563 11165 net.cpp:454] conv2_2 <- conv2_1
I1104 00:24:47.372581 11165 net.cpp:411] conv2_2 -> conv2_2
I1104 00:24:47.372810 11165 net.cpp:150] Setting up conv2_2
I1104 00:24:47.372815 11165 net.cpp:157] Top shape: 1 128 240 500 (15360000)
I1104 00:24:47.372818 11165 net.cpp:165] Memory required for data: 723840084
I1104 00:24:47.372822 11165 layer_factory.hpp:77] Creating layer relu2_2
I1104 00:24:47.372826 11165 net.cpp:106] Creating Layer relu2_2
I1104 00:24:47.372829 11165 net.cpp:454] relu2_2 <- conv2_2
I1104 00:24:47.372833 11165 net.cpp:397] relu2_2 -> conv2_2 (in-place)
I1104 00:24:47.372836 11165 net.cpp:150] Setting up relu2_2
I1104 00:24:47.372839 11165 net.cpp:157] Top shape: 1 128 240 500 (15360000)
I1104 00:24:47.372843 11165 net.cpp:165] Memory required for data: 785280084
I1104 00:24:47.372844 11165 layer_factory.hpp:77] Creating layer pool2
I1104 00:24:47.372848 11165 net.cpp:106] Creating Layer pool2
I1104 00:24:47.372850 11165 net.cpp:454] pool2 <- conv2_2
I1104 00:24:47.372854 11165 net.cpp:411] pool2 -> pool2
I1104 00:24:47.372874 11165 net.cpp:150] Setting up pool2
I1104 00:24:47.372879 11165 net.cpp:157] Top shape: 1 128 120 250 (3840000)
I1104 00:24:47.372881 11165 net.cpp:165] Memory required for data: 800640084
I1104 00:24:47.372884 11165 layer_factory.hpp:77] Creating layer conv3_1
I1104 00:24:47.372889 11165 net.cpp:106] Creating Layer conv3_1
I1104 00:24:47.372892 11165 net.cpp:454] conv3_1 <- pool2
I1104 00:24:47.372896 11165 net.cpp:411] conv3_1 -> conv3_1
I1104 00:24:47.373626 11165 net.cpp:150] Setting up conv3_1
I1104 00:24:47.373634 11165 net.cpp:157] Top shape: 1 256 120 250 (7680000)
I1104 00:24:47.373637 11165 net.cpp:165] Memory required for data: 831360084
I1104 00:24:47.373643 11165 layer_factory.hpp:77] Creating layer relu3_1
I1104 00:24:47.373647 11165 net.cpp:106] Creating Layer relu3_1
I1104 00:24:47.373651 11165 net.cpp:454] relu3_1 <- conv3_1
I1104 00:24:47.373654 11165 net.cpp:397] relu3_1 -> conv3_1 (in-place)
I1104 00:24:47.373659 11165 net.cpp:150] Setting up relu3_1
I1104 00:24:47.373662 11165 net.cpp:157] Top shape: 1 256 120 250 (7680000)
I1104 00:24:47.373666 11165 net.cpp:165] Memory required for data: 862080084
I1104 00:24:47.373667 11165 layer_factory.hpp:77] Creating layer conv3_2
I1104 00:24:47.373674 11165 net.cpp:106] Creating Layer conv3_2
I1104 00:24:47.373677 11165 net.cpp:454] conv3_2 <- conv3_1
I1104 00:24:47.373682 11165 net.cpp:411] conv3_2 -> conv3_2
I1104 00:24:47.374620 11165 net.cpp:150] Setting up conv3_2
I1104 00:24:47.374630 11165 net.cpp:157] Top shape: 1 256 120 250 (7680000)
I1104 00:24:47.374634 11165 net.cpp:165] Memory required for data: 892800084
I1104 00:24:47.374637 11165 layer_factory.hpp:77] Creating layer relu3_2
I1104 00:24:47.374642 11165 net.cpp:106] Creating Layer relu3_2
I1104 00:24:47.374645 11165 net.cpp:454] relu3_2 <- conv3_2
I1104 00:24:47.374650 11165 net.cpp:397] relu3_2 -> conv3_2 (in-place)
I1104 00:24:47.374655 11165 net.cpp:150] Setting up relu3_2
I1104 00:24:47.374658 11165 net.cpp:157] Top shape: 1 256 120 250 (7680000)
I1104 00:24:47.374661 11165 net.cpp:165] Memory required for data: 923520084
I1104 00:24:47.374667 11165 layer_factory.hpp:77] Creating layer conv3_3
I1104 00:24:47.374673 11165 net.cpp:106] Creating Layer conv3_3
I1104 00:24:47.374676 11165 net.cpp:454] conv3_3 <- conv3_2
I1104 00:24:47.374680 11165 net.cpp:411] conv3_3 -> conv3_3
I1104 00:24:47.375594 11165 net.cpp:150] Setting up conv3_3
I1104 00:24:47.375602 11165 net.cpp:157] Top shape: 1 256 120 250 (7680000)
I1104 00:24:47.375605 11165 net.cpp:165] Memory required for data: 954240084
I1104 00:24:47.375610 11165 layer_factory.hpp:77] Creating layer relu3_3
I1104 00:24:47.375614 11165 net.cpp:106] Creating Layer relu3_3
I1104 00:24:47.375617 11165 net.cpp:454] relu3_3 <- conv3_3
I1104 00:24:47.375622 11165 net.cpp:397] relu3_3 -> conv3_3 (in-place)
I1104 00:24:47.375625 11165 net.cpp:150] Setting up relu3_3
I1104 00:24:47.375629 11165 net.cpp:157] Top shape: 1 256 120 250 (7680000)
I1104 00:24:47.375632 11165 net.cpp:165] Memory required for data: 984960084
I1104 00:24:47.375634 11165 layer_factory.hpp:77] Creating layer pool3
I1104 00:24:47.375639 11165 net.cpp:106] Creating Layer pool3
I1104 00:24:47.375641 11165 net.cpp:454] pool3 <- conv3_3
I1104 00:24:47.375645 11165 net.cpp:411] pool3 -> pool3
I1104 00:24:47.375668 11165 net.cpp:150] Setting up pool3
I1104 00:24:47.375672 11165 net.cpp:157] Top shape: 1 256 60 125 (1920000)
I1104 00:24:47.375674 11165 net.cpp:165] Memory required for data: 992640084
I1104 00:24:47.375677 11165 layer_factory.hpp:77] Creating layer conv4_1
I1104 00:24:47.375684 11165 net.cpp:106] Creating Layer conv4_1
I1104 00:24:47.375686 11165 net.cpp:454] conv4_1 <- pool3
I1104 00:24:47.375689 11165 net.cpp:411] conv4_1 -> conv4_1
I1104 00:24:47.378186 11165 net.cpp:150] Setting up conv4_1
I1104 00:24:47.378206 11165 net.cpp:157] Top shape: 1 512 60 125 (3840000)
I1104 00:24:47.378211 11165 net.cpp:165] Memory required for data: 1008000084
I1104 00:24:47.378216 11165 layer_factory.hpp:77] Creating layer relu4_1
I1104 00:24:47.378224 11165 net.cpp:106] Creating Layer relu4_1
I1104 00:24:47.378228 11165 net.cpp:454] relu4_1 <- conv4_1
I1104 00:24:47.378232 11165 net.cpp:397] relu4_1 -> conv4_1 (in-place)
I1104 00:24:47.378238 11165 net.cpp:150] Setting up relu4_1
I1104 00:24:47.378242 11165 net.cpp:157] Top shape: 1 512 60 125 (3840000)
I1104 00:24:47.378244 11165 net.cpp:165] Memory required for data: 1023360084
I1104 00:24:47.378247 11165 layer_factory.hpp:77] Creating layer conv4_2
I1104 00:24:47.378253 11165 net.cpp:106] Creating Layer conv4_2
I1104 00:24:47.378257 11165 net.cpp:454] conv4_2 <- conv4_1
I1104 00:24:47.378262 11165 net.cpp:411] conv4_2 -> conv4_2
I1104 00:24:47.381402 11165 net.cpp:150] Setting up conv4_2
I1104 00:24:47.381430 11165 net.cpp:157] Top shape: 1 512 60 125 (3840000)
I1104 00:24:47.381433 11165 net.cpp:165] Memory required for data: 1038720084
I1104 00:24:47.381444 11165 layer_factory.hpp:77] Creating layer relu4_2
I1104 00:24:47.381451 11165 net.cpp:106] Creating Layer relu4_2
I1104 00:24:47.381455 11165 net.cpp:454] relu4_2 <- conv4_2
I1104 00:24:47.381461 11165 net.cpp:397] relu4_2 -> conv4_2 (in-place)
I1104 00:24:47.381467 11165 net.cpp:150] Setting up relu4_2
I1104 00:24:47.381470 11165 net.cpp:157] Top shape: 1 512 60 125 (3840000)
I1104 00:24:47.381474 11165 net.cpp:165] Memory required for data: 1054080084
I1104 00:24:47.381475 11165 layer_factory.hpp:77] Creating layer conv4_3
I1104 00:24:47.381481 11165 net.cpp:106] Creating Layer conv4_3
I1104 00:24:47.381484 11165 net.cpp:454] conv4_3 <- conv4_2
I1104 00:24:47.381489 11165 net.cpp:411] conv4_3 -> conv4_3
I1104 00:24:47.384747 11165 net.cpp:150] Setting up conv4_3
I1104 00:24:47.384774 11165 net.cpp:157] Top shape: 1 512 60 125 (3840000)
I1104 00:24:47.384778 11165 net.cpp:165] Memory required for data: 1069440084
I1104 00:24:47.384784 11165 layer_factory.hpp:77] Creating layer relu4_3
I1104 00:24:47.384790 11165 net.cpp:106] Creating Layer relu4_3
I1104 00:24:47.384794 11165 net.cpp:454] relu4_3 <- conv4_3
I1104 00:24:47.384799 11165 net.cpp:397] relu4_3 -> conv4_3 (in-place)
I1104 00:24:47.384805 11165 net.cpp:150] Setting up relu4_3
I1104 00:24:47.384814 11165 net.cpp:157] Top shape: 1 512 60 125 (3840000)
I1104 00:24:47.384817 11165 net.cpp:165] Memory required for data: 1084800084
I1104 00:24:47.384820 11165 layer_factory.hpp:77] Creating layer pool4
I1104 00:24:47.384825 11165 net.cpp:106] Creating Layer pool4
I1104 00:24:47.384829 11165 net.cpp:454] pool4 <- conv4_3
I1104 00:24:47.384832 11165 net.cpp:411] pool4 -> pool4
I1104 00:24:47.384860 11165 net.cpp:150] Setting up pool4
I1104 00:24:47.384863 11165 net.cpp:157] Top shape: 1 512 30 63 (967680)
I1104 00:24:47.384866 11165 net.cpp:165] Memory required for data: 1088670804
I1104 00:24:47.384868 11165 layer_factory.hpp:77] Creating layer conv5_1
I1104 00:24:47.384874 11165 net.cpp:106] Creating Layer conv5_1
I1104 00:24:47.384877 11165 net.cpp:454] conv5_1 <- pool4
I1104 00:24:47.384881 11165 net.cpp:411] conv5_1 -> conv5_1
I1104 00:24:47.388378 11165 net.cpp:150] Setting up conv5_1
I1104 00:24:47.388407 11165 net.cpp:157] Top shape: 1 512 30 63 (967680)
I1104 00:24:47.388411 11165 net.cpp:165] Memory required for data: 1092541524
I1104 00:24:47.388417 11165 layer_factory.hpp:77] Creating layer relu5_1
I1104 00:24:47.388424 11165 net.cpp:106] Creating Layer relu5_1
I1104 00:24:47.388429 11165 net.cpp:454] relu5_1 <- conv5_1
I1104 00:24:47.388433 11165 net.cpp:397] relu5_1 -> conv5_1 (in-place)
I1104 00:24:47.388440 11165 net.cpp:150] Setting up relu5_1
I1104 00:24:47.388444 11165 net.cpp:157] Top shape: 1 512 30 63 (967680)
I1104 00:24:47.388447 11165 net.cpp:165] Memory required for data: 1096412244
I1104 00:24:47.388449 11165 layer_factory.hpp:77] Creating layer conv5_2
I1104 00:24:47.388455 11165 net.cpp:106] Creating Layer conv5_2
I1104 00:24:47.388458 11165 net.cpp:454] conv5_2 <- conv5_1
I1104 00:24:47.388463 11165 net.cpp:411] conv5_2 -> conv5_2
I1104 00:24:47.392244 11165 net.cpp:150] Setting up conv5_2
I1104 00:24:47.392271 11165 net.cpp:157] Top shape: 1 512 30 63 (967680)
I1104 00:24:47.392273 11165 net.cpp:165] Memory required for data: 1100282964
I1104 00:24:47.392280 11165 layer_factory.hpp:77] Creating layer relu5_2
I1104 00:24:47.392287 11165 net.cpp:106] Creating Layer relu5_2
I1104 00:24:47.392292 11165 net.cpp:454] relu5_2 <- conv5_2
I1104 00:24:47.392297 11165 net.cpp:397] relu5_2 -> conv5_2 (in-place)
I1104 00:24:47.392304 11165 net.cpp:150] Setting up relu5_2
I1104 00:24:47.392308 11165 net.cpp:157] Top shape: 1 512 30 63 (967680)
I1104 00:24:47.392310 11165 net.cpp:165] Memory required for data: 1104153684
I1104 00:24:47.392313 11165 layer_factory.hpp:77] Creating layer conv5_3
I1104 00:24:47.392323 11165 net.cpp:106] Creating Layer conv5_3
I1104 00:24:47.392325 11165 net.cpp:454] conv5_3 <- conv5_2
I1104 00:24:47.392329 11165 net.cpp:411] conv5_3 -> conv5_3
I1104 00:24:47.396131 11165 net.cpp:150] Setting up conv5_3
I1104 00:24:47.396158 11165 net.cpp:157] Top shape: 1 512 30 63 (967680)
I1104 00:24:47.396162 11165 net.cpp:165] Memory required for data: 1108024404
I1104 00:24:47.396167 11165 layer_factory.hpp:77] Creating layer relu5_3
I1104 00:24:47.396175 11165 net.cpp:106] Creating Layer relu5_3
I1104 00:24:47.396179 11165 net.cpp:454] relu5_3 <- conv5_3
I1104 00:24:47.396183 11165 net.cpp:397] relu5_3 -> conv5_3 (in-place)
I1104 00:24:47.396189 11165 net.cpp:150] Setting up relu5_3
I1104 00:24:47.396193 11165 net.cpp:157] Top shape: 1 512 30 63 (967680)
I1104 00:24:47.396195 11165 net.cpp:165] Memory required for data: 1111895124
I1104 00:24:47.396198 11165 layer_factory.hpp:77] Creating layer conv5_3_relu5_3_0_split
I1104 00:24:47.396203 11165 net.cpp:106] Creating Layer conv5_3_relu5_3_0_split
I1104 00:24:47.396205 11165 net.cpp:454] conv5_3_relu5_3_0_split <- conv5_3
I1104 00:24:47.396209 11165 net.cpp:411] conv5_3_relu5_3_0_split -> conv5_3_relu5_3_0_split_0
I1104 00:24:47.396214 11165 net.cpp:411] conv5_3_relu5_3_0_split -> conv5_3_relu5_3_0_split_1
I1104 00:24:47.396237 11165 net.cpp:150] Setting up conv5_3_relu5_3_0_split
I1104 00:24:47.396242 11165 net.cpp:157] Top shape: 1 512 30 63 (967680)
I1104 00:24:47.396245 11165 net.cpp:157] Top shape: 1 512 30 63 (967680)
I1104 00:24:47.396253 11165 net.cpp:165] Memory required for data: 1119636564
I1104 00:24:47.396256 11165 layer_factory.hpp:77] Creating layer rpn_conv/3x3
I1104 00:24:47.396265 11165 net.cpp:106] Creating Layer rpn_conv/3x3
I1104 00:24:47.396267 11165 net.cpp:454] rpn_conv/3x3 <- conv5_3_relu5_3_0_split_0
I1104 00:24:47.396271 11165 net.cpp:411] rpn_conv/3x3 -> rpn/output
I1104 00:24:47.441395 11165 net.cpp:150] Setting up rpn_conv/3x3
I1104 00:24:47.441421 11165 net.cpp:157] Top shape: 1 512 30 63 (967680)
I1104 00:24:47.441423 11165 net.cpp:165] Memory required for data: 1123507284
I1104 00:24:47.441429 11165 layer_factory.hpp:77] Creating layer rpn_relu/3x3
I1104 00:24:47.441435 11165 net.cpp:106] Creating Layer rpn_relu/3x3
I1104 00:24:47.441439 11165 net.cpp:454] rpn_relu/3x3 <- rpn/output
I1104 00:24:47.441444 11165 net.cpp:397] rpn_relu/3x3 -> rpn/output (in-place)
I1104 00:24:47.441450 11165 net.cpp:150] Setting up rpn_relu/3x3
I1104 00:24:47.441454 11165 net.cpp:157] Top shape: 1 512 30 63 (967680)
I1104 00:24:47.441457 11165 net.cpp:165] Memory required for data: 1127378004
I1104 00:24:47.441459 11165 layer_factory.hpp:77] Creating layer rpn/output_rpn_relu/3x3_0_split
I1104 00:24:47.441464 11165 net.cpp:106] Creating Layer rpn/output_rpn_relu/3x3_0_split
I1104 00:24:47.441468 11165 net.cpp:454] rpn/output_rpn_relu/3x3_0_split <- rpn/output
I1104 00:24:47.441470 11165 net.cpp:411] rpn/output_rpn_relu/3x3_0_split -> rpn/output_rpn_relu/3x3_0_split_0
I1104 00:24:47.441475 11165 net.cpp:411] rpn/output_rpn_relu/3x3_0_split -> rpn/output_rpn_relu/3x3_0_split_1
I1104 00:24:47.441498 11165 net.cpp:150] Setting up rpn/output_rpn_relu/3x3_0_split
I1104 00:24:47.441503 11165 net.cpp:157] Top shape: 1 512 30 63 (967680)
I1104 00:24:47.441505 11165 net.cpp:157] Top shape: 1 512 30 63 (967680)
I1104 00:24:47.441509 11165 net.cpp:165] Memory required for data: 1135119444
I1104 00:24:47.441511 11165 layer_factory.hpp:77] Creating layer rpn_cls_score
I1104 00:24:47.441517 11165 net.cpp:106] Creating Layer rpn_cls_score
I1104 00:24:47.441520 11165 net.cpp:454] rpn_cls_score <- rpn/output_rpn_relu/3x3_0_split_0
I1104 00:24:47.441526 11165 net.cpp:411] rpn_cls_score -> rpn_cls_score
I1104 00:24:47.441859 11165 net.cpp:150] Setting up rpn_cls_score
I1104 00:24:47.441864 11165 net.cpp:157] Top shape: 1 18 30 63 (34020)
I1104 00:24:47.441867 11165 net.cpp:165] Memory required for data: 1135255524
I1104 00:24:47.441871 11165 layer_factory.hpp:77] Creating layer rpn_cls_score_rpn_cls_score_0_split
I1104 00:24:47.441875 11165 net.cpp:106] Creating Layer rpn_cls_score_rpn_cls_score_0_split
I1104 00:24:47.441877 11165 net.cpp:454] rpn_cls_score_rpn_cls_score_0_split <- rpn_cls_score
I1104 00:24:47.441881 11165 net.cpp:411] rpn_cls_score_rpn_cls_score_0_split -> rpn_cls_score_rpn_cls_score_0_split_0
I1104 00:24:47.441890 11165 net.cpp:411] rpn_cls_score_rpn_cls_score_0_split -> rpn_cls_score_rpn_cls_score_0_split_1
I1104 00:24:47.441910 11165 net.cpp:150] Setting up rpn_cls_score_rpn_cls_score_0_split
I1104 00:24:47.441915 11165 net.cpp:157] Top shape: 1 18 30 63 (34020)
I1104 00:24:47.441918 11165 net.cpp:157] Top shape: 1 18 30 63 (34020)
I1104 00:24:47.441921 11165 net.cpp:165] Memory required for data: 1135527684
I1104 00:24:47.441923 11165 layer_factory.hpp:77] Creating layer rpn_bbox_pred
I1104 00:24:47.441929 11165 net.cpp:106] Creating Layer rpn_bbox_pred
I1104 00:24:47.441932 11165 net.cpp:454] rpn_bbox_pred <- rpn/output_rpn_relu/3x3_0_split_1
I1104 00:24:47.441936 11165 net.cpp:411] rpn_bbox_pred -> rpn_bbox_pred
I1104 00:24:47.442404 11165 net.cpp:150] Setting up rpn_bbox_pred
I1104 00:24:47.442409 11165 net.cpp:157] Top shape: 1 36 30 63 (68040)
I1104 00:24:47.442411 11165 net.cpp:165] Memory required for data: 1135799844
I1104 00:24:47.442415 11165 layer_factory.hpp:77] Creating layer rpn_bbox_pred_rpn_bbox_pred_0_split
I1104 00:24:47.442420 11165 net.cpp:106] Creating Layer rpn_bbox_pred_rpn_bbox_pred_0_split
I1104 00:24:47.442422 11165 net.cpp:454] rpn_bbox_pred_rpn_bbox_pred_0_split <- rpn_bbox_pred
I1104 00:24:47.442430 11165 net.cpp:411] rpn_bbox_pred_rpn_bbox_pred_0_split -> rpn_bbox_pred_rpn_bbox_pred_0_split_0
I1104 00:24:47.442435 11165 net.cpp:411] rpn_bbox_pred_rpn_bbox_pred_0_split -> rpn_bbox_pred_rpn_bbox_pred_0_split_1
I1104 00:24:47.442456 11165 net.cpp:150] Setting up rpn_bbox_pred_rpn_bbox_pred_0_split
I1104 00:24:47.442461 11165 net.cpp:157] Top shape: 1 36 30 63 (68040)
I1104 00:24:47.442463 11165 net.cpp:157] Top shape: 1 36 30 63 (68040)
I1104 00:24:47.442466 11165 net.cpp:165] Memory required for data: 1136344164
I1104 00:24:47.442468 11165 layer_factory.hpp:77] Creating layer rpn_cls_score_reshape
I1104 00:24:47.442473 11165 net.cpp:106] Creating Layer rpn_cls_score_reshape
I1104 00:24:47.442476 11165 net.cpp:454] rpn_cls_score_reshape <- rpn_cls_score_rpn_cls_score_0_split_0
I1104 00:24:47.442483 11165 net.cpp:411] rpn_cls_score_reshape -> rpn_cls_score_reshape
I1104 00:24:47.442499 11165 net.cpp:150] Setting up rpn_cls_score_reshape
I1104 00:24:47.442503 11165 net.cpp:157] Top shape: 1 2 270 63 (34020)
I1104 00:24:47.442507 11165 net.cpp:165] Memory required for data: 1136480244
I1104 00:24:47.442509 11165 layer_factory.hpp:77] Creating layer rpn_cls_score_reshape_rpn_cls_score_reshape_0_split
I1104 00:24:47.442512 11165 net.cpp:106] Creating Layer rpn_cls_score_reshape_rpn_cls_score_reshape_0_split
I1104 00:24:47.442515 11165 net.cpp:454] rpn_cls_score_reshape_rpn_cls_score_reshape_0_split <- rpn_cls_score_reshape
I1104 00:24:47.442518 11165 net.cpp:411] rpn_cls_score_reshape_rpn_cls_score_reshape_0_split -> rpn_cls_score_reshape_rpn_cls_score_reshape_0_split_0
I1104 00:24:47.442523 11165 net.cpp:411] rpn_cls_score_reshape_rpn_cls_score_reshape_0_split -> rpn_cls_score_reshape_rpn_cls_score_reshape_0_split_1
I1104 00:24:47.442558 11165 net.cpp:150] Setting up rpn_cls_score_reshape_rpn_cls_score_reshape_0_split
I1104 00:24:47.442574 11165 net.cpp:157] Top shape: 1 2 270 63 (34020)
I1104 00:24:47.442577 11165 net.cpp:157] Top shape: 1 2 270 63 (34020)
I1104 00:24:47.442580 11165 net.cpp:165] Memory required for data: 1136752404
I1104 00:24:47.442582 11165 layer_factory.hpp:77] Creating layer rpn-data
I1104 00:24:47.442925 11165 net.cpp:106] Creating Layer rpn-data
I1104 00:24:47.442934 11165 net.cpp:454] rpn-data <- rpn_cls_score_rpn_cls_score_0_split_1
I1104 00:24:47.442937 11165 net.cpp:454] rpn-data <- gt_boxes_input-data_2_split_0
I1104 00:24:47.442941 11165 net.cpp:454] rpn-data <- im_info_input-data_1_split_0
I1104 00:24:47.442945 11165 net.cpp:454] rpn-data <- data_input-data_0_split_1
I1104 00:24:47.442950 11165 net.cpp:411] rpn-data -> rpn_labels
I1104 00:24:47.442955 11165 net.cpp:411] rpn-data -> rpn_bbox_targets
I1104 00:24:47.442960 11165 net.cpp:411] rpn-data -> rpn_bbox_inside_weights
I1104 00:24:47.442965 11165 net.cpp:411] rpn-data -> rpn_bbox_outside_weights
I1104 00:24:47.443409 11165 net.cpp:150] Setting up rpn-data
I1104 00:24:47.443418 11165 net.cpp:157] Top shape: 1 1 270 63 (17010)
I1104 00:24:47.443423 11165 net.cpp:157] Top shape: 1 36 30 63 (68040)
I1104 00:24:47.443425 11165 net.cpp:157] Top shape: 1 36 30 63 (68040)
I1104 00:24:47.443429 11165 net.cpp:157] Top shape: 1 36 30 63 (68040)
I1104 00:24:47.443431 11165 net.cpp:165] Memory required for data: 1137636924
I1104 00:24:47.443434 11165 layer_factory.hpp:77] Creating layer rpn_loss_cls
I1104 00:24:47.443439 11165 net.cpp:106] Creating Layer rpn_loss_cls
I1104 00:24:47.443444 11165 net.cpp:454] rpn_loss_cls <- rpn_cls_score_reshape_rpn_cls_score_reshape_0_split_0
I1104 00:24:47.443447 11165 net.cpp:454] rpn_loss_cls <- rpn_labels
…
I1104 00:24:47.443928 11165 net.cpp:157] Top shape: (1)
I1104 00:24:47.443930 11165 net.cpp:160]     with loss weight 1
I1104 00:24:47.443933 11165 net.cpp:165] Memory required for data: 1137636932
I1104 00:24:47.443936 11165 layer_factory.hpp:77] Creating layer rpn_cls_prob
I1104 00:24:47.443940 11165 net.cpp:106] Creating Layer rpn_cls_prob
I1104 00:24:47.443943 11165 net.cpp:454] rpn_cls_prob <- rpn_cls_score_reshape_rpn_cls_score_reshape_0_split_1
I1104 00:24:47.443948 11165 net.cpp:411] rpn_cls_prob -> rpn_cls_prob
I1104 00:24:47.443984 11165 net.cpp:150] Setting up rpn_cls_prob
I1104 00:24:47.443987 11165 net.cpp:157] Top shape: 1 2 270 63 (34020)
I1104 00:24:47.443990 11165 net.cpp:165] Memory required for data: 1137773012
I1104 00:24:47.443994 11165 layer_factory.hpp:77] Creating layer rpn_cls_prob_reshape
I1104 00:24:47.443998 11165 net.cpp:106] Creating Layer rpn_cls_prob_reshape
I1104 00:24:47.444001 11165 net.cpp:454] rpn_cls_prob_reshape <- rpn_cls_prob
I1104 00:24:47.444005 11165 net.cpp:411] rpn_cls_prob_reshape -> rpn_cls_prob_reshape
I1104 00:24:47.444020 11165 net.cpp:150] Setting up rpn_cls_prob_reshape
I1104 00:24:47.444023 11165 net.cpp:157] Top shape: 1 18 30 63 (34020)
I1104 00:24:47.444025 11165 net.cpp:165] Memory required for data: 1137909092
I1104 00:24:47.444028 11165 layer_factory.hpp:77] Creating layer proposal
I1104 00:24:47.445559 11165 net.cpp:106] Creating Layer proposal
I1104 00:24:47.445580 11165 net.cpp:454] proposal <- rpn_cls_prob_reshape
I1104 00:24:47.445585 11165 net.cpp:454] proposal <- rpn_bbox_pred_rpn_bbox_pred_0_split_1
I1104 00:24:47.445588 11165 net.cpp:454] proposal <- im_info_input-data_1_split_1
I1104 00:24:47.445592 11165 net.cpp:411] proposal -> rpn_rois
I1104 00:24:47.446035 11165 net.cpp:150] Setting up proposal
I1104 00:24:47.446044 11165 net.cpp:157] Top shape: 1 5 (5)
I1104 00:24:47.446048 11165 net.cpp:165] Memory required for data: 1137909112
I1104 00:24:47.446050 11165 layer_factory.hpp:77] Creating layer roi-data
I1104 00:24:47.446141 11165 net.cpp:106] Creating Layer roi-data
I1104 00:24:47.446146 11165 net.cpp:454] roi-data <- rpn_rois
I1104 00:24:47.446151 11165 net.cpp:454] roi-data <- gt_boxes_input-data_2_split_1
I1104 00:24:47.446156 11165 net.cpp:411] roi-data -> rois
I1104 00:24:47.446161 11165 net.cpp:411] roi-data -> labels
I1104 00:24:47.446166 11165 net.cpp:411] roi-data -> bbox_targets
I1104 00:24:47.446169 11165 net.cpp:411] roi-data -> bbox_inside_weights
I1104 00:24:47.446174 11165 net.cpp:411] roi-data -> bbox_outside_weights
I1104 00:24:47.446707 11165 net.cpp:150] Setting up roi-data
I1104 00:24:47.446717 11165 net.cpp:157] Top shape: 1 5 (5)
I1104 00:24:47.446720 11165 net.cpp:157] Top shape: 1 1 (1)
I1104 00:24:47.446723 11165 net.cpp:157] Top shape: 1 12 (12)
I1104 00:24:47.446727 11165 net.cpp:157] Top shape: 1 12 (12)
I1104 00:24:47.446729 11165 net.cpp:157] Top shape: 1 12 (12)
I1104 00:24:47.446732 11165 net.cpp:165] Memory required for data: 1137909280
I1104 00:24:47.446734 11165 layer_factory.hpp:77] Creating layer roi_pool5
I1104 00:24:47.446739 11165 net.cpp:106] Creating Layer roi_pool5
I1104 00:24:47.446743 11165 net.cpp:454] roi_pool5 <- conv5_3_relu5_3_0_split_1
I1104 00:24:47.446746 11165 net.cpp:454] roi_pool5 <- rois
I1104 00:24:47.446750 11165 net.cpp:411] roi_pool5 -> pool5
I1104 00:24:47.446756 11165 roi_pooling_layer.cpp:30] Spatial scale: 0.0625
I1104 00:24:47.446779 11165 net.cpp:150] Setting up roi_pool5
I1104 00:24:47.446784 11165 net.cpp:157] Top shape: 1 512 7 7 (25088)
I1104 00:24:47.446789 11165 net.cpp:165] Memory required for data: 1138009632
I1104 00:24:47.446792 11165 layer_factory.hpp:77] Creating layer fc6
I1104 00:24:47.446797 11165 net.cpp:106] Creating Layer fc6
I1104 00:24:47.446800 11165 net.cpp:454] fc6 <- pool5
I1104 00:24:47.446805 11165 net.cpp:411] fc6 -> fc6
I1104 00:24:47.623579 11165 net.cpp:150] Setting up fc6
I1104 00:24:47.623601 11165 net.cpp:157] Top shape: 1 4096 (4096)
I1104 00:24:47.623605 11165 net.cpp:165] Memory required for data: 1138026016
I1104 00:24:47.623630 11165 layer_factory.hpp:77] Creating layer relu6
I1104 00:24:47.623636 11165 net.cpp:106] Creating Layer relu6
I1104 00:24:47.623641 11165 net.cpp:454] relu6 <- fc6
I1104 00:24:47.623646 11165 net.cpp:397] relu6 -> fc6 (in-place)
I1104 00:24:47.623651 11165 net.cpp:150] Setting up relu6
I1104 00:24:47.623656 11165 net.cpp:157] Top shape: 1 4096 (4096)
I1104 00:24:47.623657 11165 net.cpp:165] Memory required for data: 1138042400
I1104 00:24:47.623661 11165 layer_factory.hpp:77] Creating layer drop6
I1104 00:24:47.623664 11165 net.cpp:106] Creating Layer drop6
I1104 00:24:47.623667 11165 net.cpp:454] drop6 <- fc6
I1104 00:24:47.623670 11165 net.cpp:397] drop6 -> fc6 (in-place)
I1104 00:24:47.623687 11165 net.cpp:150] Setting up drop6
I1104 00:24:47.623692 11165 net.cpp:157] Top shape: 1 4096 (4096)
I1104 00:24:47.623694 11165 net.cpp:165] Memory required for data: 1138058784
I1104 00:24:47.623697 11165 layer_factory.hpp:77] Creating layer fc7
I1104 00:24:47.623703 11165 net.cpp:106] Creating Layer fc7
I1104 00:24:47.623705 11165 net.cpp:454] fc7 <- fc6
I1104 00:24:47.623709 11165 net.cpp:411] fc7 -> fc7
I1104 00:24:47.654345 11165 net.cpp:150] Setting up fc7
I1104 00:24:47.654402 11165 net.cpp:157] Top shape: 1 4096 (4096)
I1104 00:24:47.654405 11165 net.cpp:165] Memory required for data: 1138075168
I1104 00:24:47.654412 11165 layer_factory.hpp:77] Creating layer relu7
I1104 00:24:47.654422 11165 net.cpp:106] Creating Layer relu7
I1104 00:24:47.654428 11165 net.cpp:454] relu7 <- fc7
I1104 00:24:47.654433 11165 net.cpp:397] relu7 -> fc7 (in-place)
I1104 00:24:47.654439 11165 net.cpp:150] Setting up relu7
I1104 00:24:47.654443 11165 net.cpp:157] Top shape: 1 4096 (4096)
I1104 00:24:47.654446 11165 net.cpp:165] Memory required for data: 1138091552
I1104 00:24:47.654449 11165 layer_factory.hpp:77] Creating layer drop7
I1104 00:24:47.654455 11165 net.cpp:106] Creating Layer drop7
I1104 00:24:47.654458 11165 net.cpp:454] drop7 <- fc7
I1104 00:24:47.654462 11165 net.cpp:397] drop7 -> fc7 (in-place)
I1104 00:24:47.654490 11165 net.cpp:150] Setting up drop7
I1104 00:24:47.654496 11165 net.cpp:157] Top shape: 1 4096 (4096)
I1104 00:24:47.654498 11165 net.cpp:165] Memory required for data: 1138107936
I1104 00:24:47.654501 11165 layer_factory.hpp:77] Creating layer fc7_drop7_0_split
I1104 00:24:47.654507 11165 net.cpp:106] Creating Layer fc7_drop7_0_split
I1104 00:24:47.654510 11165 net.cpp:454] fc7_drop7_0_split <- fc7
I1104 00:24:47.654513 11165 net.cpp:411] fc7_drop7_0_split -> fc7_drop7_0_split_0
I1104 00:24:47.654518 11165 net.cpp:411] fc7_drop7_0_split -> fc7_drop7_0_split_1
I1104 00:24:47.654561 11165 net.cpp:150] Setting up fc7_drop7_0_split
I1104 00:24:47.654566 11165 net.cpp:157] Top shape: 1 4096 (4096)
I1104 00:24:47.654569 11165 net.cpp:157] Top shape: 1 4096 (4096)
I1104 00:24:47.654585 11165 net.cpp:165] Memory required for data: 1138140704
I1104 00:24:47.654588 11165 layer_factory.hpp:77] Creating layer cls_score
I1104 00:24:47.654594 11165 net.cpp:106] Creating Layer cls_score
I1104 00:24:47.654598 11165 net.cpp:454] cls_score <- fc7_drop7_0_split_0
I1104 00:24:47.654603 11165 net.cpp:411] cls_score -> cls_score
I1104 00:24:47.655002 11165 net.cpp:150] Setting up cls_score
I1104 00:24:47.655007 11165 net.cpp:157] Top shape: 1 3 (3)
I1104 00:24:47.655023 11165 net.cpp:165] Memory required for data: 1138140716
I1104 00:24:47.655027 11165 layer_factory.hpp:77] Creating layer bbox_pred
I1104 00:24:47.655051 11165 net.cpp:106] Creating Layer bbox_pred
I1104 00:24:47.655068 11165 net.cpp:454] bbox_pred <- fc7_drop7_0_split_1
I1104 00:24:47.655092 11165 net.cpp:411] bbox_pred -> bbox_pred
I1104 00:24:47.656251 11165 net.cpp:150] Setting up bbox_pred
I1104 00:24:47.656257 11165 net.cpp:157] Top shape: 1 12 (12)
I1104 00:24:47.656260 11165 net.cpp:165] Memory required for data: 1138140764
I1104 00:24:47.656265 11165 layer_factory.hpp:77] Creating layer loss_cls
I1104 00:24:47.656270 11165 net.cpp:106] Creating Layer loss_cls
I1104 00:24:47.656272 11165 net.cpp:454] loss_cls <- cls_score
I1104 00:24:47.656276 11165 net.cpp:454] loss_cls <- labels
I1104 00:24:47.656280 11165 net.cpp:411] loss_cls -> loss_cls
…
