…
snapshot_prefix: "vgg16_faster_rcnn"
average_loss: 100
iter_size: 2
I1104 10:29:02.555301 21478 solver.cpp:81] Creating training net from train_net file: models/imagenet/VGG16/faster_rcnn_end2end/train.prototxt
I1104 10:29:02.556898 21478 net.cpp:49] Initializing net from parameters: 
name: "VGG_ILSVRC_16_layers"
state {
  phase: TRAIN
}
layer {
  name: "input-data"
  type: "Python"
  top: "data"
  top: "im_info"
  top: "gt_boxes"
  python_param {
    module: "roi_data_layer.layer"
    layer: "RoIDataLayer"
    param_str: "\'num_classes\': 3"
  }
}
layer {
  name: "conv1_1"
  type: "Convolution"
  bottom: "data"
  top: "conv1_1"
  param {
    lr_mult: 0
    decay_mult: 0
  }
  param {
    lr_mult: 0
    decay_mult: 0
  }
  convolution_param {
    num_output: 64
    pad: 1
    kernel_size: 3
  }
}
layer {
  name: "relu1_1"
  type: "ReLU"
  bottom: "conv1_1"
  top: "conv1_1"
}
layer {
  name: "conv1_2"
  type: "Convolution"
  bottom: "conv1_1"
  top: "conv1_2"
  param {
    lr_mult: 0
    decay_mult: 0
  }
  param {
    lr_mult: 0
    decay_mult: 0
  }
  convolution_param {
    num_output: 64
    pad: 1
    kernel_size: 3
  }
}
layer {
  name: "relu1_2"
  type: "ReLU"
  bottom: "conv1_2"
  top: "conv1_2"
}
layer {
  name: "pool1"
  type: "Pooling"
  bottom: "conv1_2"
  top: "pool1"
  pooling_param {
    pool: MAX
    kernel_size: 2
    stride: 2
  }
}
layer {
  name: "conv2_1"
  type: "Convolution"
  bottom: "pool1"
  top: "conv2_1"
  param {
    lr_mult: 0
    decay_mult: 0
  }
  param {
    lr_mult: 0
    decay_mult: 0
  }
  convolution_param {
    num_output: 128
    pad: 1
    kernel_size: 3
  }
}
layer {
  name: "relu2_1"
  type: "ReLU"
  bottom: "conv2_1"
  top: "conv2_1"
}
layer {
  name: "conv2_2"
  type: "Convolution"
  bottom: "conv2_1"
  top: "conv2_2"
  param {
    lr_mult: 0
    decay_mult: 0
  }
  param {
    lr_mult: 0
    decay_mult: 0
  }
  convolution_param {
    num_output: 128
    pad: 1
    kernel_size: 3
  }
}
layer {
  name: "relu2_2"
  type: "ReLU"
  bottom: "conv2_2"
  top: "conv2_2"
}
layer {
  name: "pool2"
  type: "Pooling"
  bottom: "conv2_2"
  top: "pool2"
  pooling_param {
    pool: MAX
    kernel_size: 2
    stride: 2
  }
}
layer {
  name: "conv3_1"
  type: "Convolution"
  bottom: "pool2"
  top: "conv3_1"
  param {
    lr_mult: 1
  }
  param {
    lr_mult: 2
  }
  convolution_param {
    num_output: 256
    pad: 1
    kernel_size: 3
  }
}
layer {
  name: "relu3_1"
  type: "ReLU"
  bottom: "conv3_1"
  top: "conv3_1"
}
layer {
  name: "conv3_2"
  type: "Convolution"
  bottom: "conv3_1"
  top: "conv3_2"
  param {
    lr_mult: 1
  }
  param {
    lr_mult: 2
  }
  convolution_param {
    num_output: 256
    pad: 1
    kernel_size: 3
  }
}
layer {
  name: "relu3_2"
  type: "ReLU"
  bottom: "conv3_2"
  top: "conv3_2"
}
layer {
  name: "conv3_3"
  type: "Convolution"
  bottom: "conv3_2"
  top: "conv3_3"
  param {
    lr_mult: 1
  }
  param {
    lr_mult: 2
  }
  convolution_param {
    num_output: 256
    pad: 1
    kernel_size: 3
  }
}
layer {
  name: "relu3_3"
  type: "ReLU"
  bottom: "conv3_3"
  top: "conv3_3"
}
layer {
  name: "pool3"
  type: "Pooling"
  bottom: "conv3_3"
  top: "pool3"
  pooling_param {
    pool: MAX
    kernel_size: 2
    stride: 2
  }
}
layer {
  name: "conv4_1"
  type: "Convolution"
  bottom: "pool3"
  top: "conv4_1"
  param {
    lr_mult: 1
  }
  param {
    lr_mult: 2
  }
  convolution_param {
    num_output: 512
    pad: 1
    kernel_size: 3
  }
}
layer {
  name: "relu4_1"
  type: "ReLU"
  bottom: "conv4_1"
  top: "conv4_1"
}
layer {
  name: "conv4_2"
  type: "Convolution"
  bottom: "conv4_1"
  top: "conv4_2"
  param {
    lr_mult: 1
  }
  param {
    lr_mult: 2
  }
  convolution_param {
    num_output: 512
    pad: 1
    kernel_size: 3
  }
}
layer {
  name: "relu4_2"
  type: "ReLU"
  bottom: "conv4_2"
  top: "conv4_2"
}
layer {
  name: "conv4_3"
  type: "Convolution"
  bottom: "conv4_2"
  top: "conv4_3"
  param {
    lr_mult: 1
  }
  param {
    lr_mult: 2
  }
  convolution_param {
    num_output: 512
    pad: 1
    kernel_size: 3
  }
}
layer {
  name: "relu4_3"
  type: "ReLU"
  bottom: "conv4_3"
  top: "conv4_3"
}
layer {
  name: "pool4"
  type: "Pooling"
  bottom: "conv4_3"
  top: "pool4"
  pooling_param {
    pool: MAX
    kernel_size: 2
    stride: 2
  }
}
layer {
  name: "conv5_1"
  type: "Convolution"
  bottom: "pool4"
  top: "conv5_1"
  param {
    lr_mult: 1
  }
  param {
    lr_mult: 2
  }
  convolution_param {
    num_output: 512
    pad: 1
    kernel_size: 3
  }
}
layer {
  name: "relu5_1"
  type: "ReLU"
  bottom: "conv5_1"
  top: "conv5_1"
}
layer {
  name: "conv5_2"
  type: "Convolution"
  bottom: "conv5_1"
  top: "conv5_2"
  param {
    lr_mult: 1
  }
  param {
    lr_mult: 2
  }
  convolution_param {
    num_output: 512
    pad: 1
    kernel_size: 3
  }
}
layer {
  name: "relu5_2"
  type: "ReLU"
  bottom: "conv5_2"
  top: "conv5_2"
}
layer {
  name: "conv5_3"
  type: "Convolution"
  bottom: "conv5_2"
  top: "conv5_3"
  param {
    lr_mult: 1
  }
  param {
    lr_mult: 2
  }
  convolution_param {
    num_output: 512
    pad: 1
    kernel_size: 3
  }
}
layer {
  name: "relu5_3"
  type: "ReLU"
  bottom: "conv5_3"
  top: "conv5_3"
}
layer {
  name: "rpn_conv/3x3"
  type: "Convolution"
  bottom: "conv5_3"
  top: "rpn/output"
  param {
    lr_mult: 1
  }
  param {
    lr_mult: 2
  }
  convolution_param {
    num_output: 512
    pad: 1
    kernel_size: 3
    stride: 1
    weight_filler {
      type: "gaussian"
      std: 0.01
    }
    bias_filler {
      type: "constant"
      value: 0
    }
  }
}
layer {
  name: "rpn_relu/3x3"
  type: "ReLU"
  bottom: "rpn/output"
  top: "rpn/output"
}
layer {
  name: "rpn_cls_score"
  type: "Convolution"
  bottom: "rpn/output"
  top: "rpn_cls_score"
  param {
    lr_mult: 1
  }
  param {
    lr_mult: 2
  }
  convolution_param {
    num_output: 18
    pad: 0
    kernel_size: 1
    stride: 1
    weight_filler {
      type: "gaussian"
      std: 0.01
    }
    bias_filler {
      type: "constant"
      value: 0
    }
  }
}
layer {
  name: "rpn_bbox_pred"
  type: "Convolution"
  bottom: "rpn/output"
  top: "rpn_bbox_pred"
  param {
    lr_mult: 1
  }
  param {
    lr_mult: 2
  }
  convolution_param {
    num_output: 36
    pad: 0
    kernel_size: 1
    stride: 1
    weight_filler {
      type: "gaussian"
      std: 0.01
    }
    bias_filler {
      type: "constant"
      value: 0
    }
  }
}
layer {
  name: "rpn_cls_score_reshape"
  type: "Reshape"
  bottom: "rpn_cls_score"
  top: "rpn_cls_score_reshape"
  reshape_param {
    shape {
      dim: 0
      dim: 2
      dim: -1
      dim: 0
    }
  }
}
layer {
  name: "rpn-data"
  type: "Python"
  bottom: "rpn_cls_score"
  bottom: "gt_boxes"
  bottom: "im_info"
  bottom: "data"
  top: "rpn_labels"
  top: "rpn_bbox_targets"
  top: "rpn_bbox_inside_weights"
  top: "rpn_bbox_outside_weights"
  python_param {
    module: "rpn.anchor_target_layer"
    layer: "AnchorTargetLayer"
    param_str: "\'feat_stride\': 16"
  }
}
layer {
  name: "rpn_loss_cls"
  type: "SoftmaxWithLoss"
  bottom: "rpn_cls_score_reshape"
  bottom: "rpn_labels"
  top: "rpn_cls_loss"
  loss_weight: 1
  propagate_down: true
  propagate_down: false
  loss_param {
    ignore_label: -1
    normalize: true
  }
}
layer {
  name: "rpn_loss_bbox"
  type: "SmoothL1Loss"
  bottom: "rpn_bbox_pred"
  bottom: "rpn_bbox_targets"
  bottom: "rpn_bbox_inside_weights"
  bottom: "rpn_bbox_outside_weights"
  top: "rpn_loss_bbox"
  loss_weight: 1
  smooth_l1_loss_param {
    sigma: 3
  }
}
layer {
  name: "rpn_cls_prob"
  type: "Softmax"
  bottom: "rpn_cls_score_reshape"
  top: "rpn_cls_prob"
}
layer {
  name: "rpn_cls_prob_reshape"
  type: "Reshape"
  bottom: "rpn_cls_prob"
  top: "rpn_cls_prob_reshape"
  reshape_param {
    shape {
      dim: 0
      dim: 18
      dim: -1
      dim: 0
    }
  }
}
layer {
  name: "proposal"
  type: "Python"
  bottom: "rpn_cls_prob_reshape"
  bottom: "rpn_bbox_pred"
  bottom: "im_info"
  top: "rpn_rois"
  python_param {
    module: "rpn.proposal_layer"
    layer: "ProposalLayer"
    param_str: "\'feat_stride\': 16"
  }
}
layer {
  name: "roi-data"
  type: "Python"
  bottom: "rpn_rois"
  bottom: "gt_boxes"
  top: "rois"
  top: "labels"
  top: "bbox_targets"
  top: "bbox_inside_weights"
  top: "bbox_outside_weights"
  python_param {
    module: "rpn.proposal_target_layer"
    layer: "ProposalTargetLayer"
    param_str: "\'num_classes\': 3"
  }
}
layer {
  name: "roi_pool5"
  type: "ROIPooling"
  bottom: "conv5_3"
  bottom: "rois"
  top: "pool5"
  roi_pooling_param {
    pooled_h: 7
    pooled_w: 7
    spatial_scale: 0.0625
  }
}
layer {
  name: "fc6"
  type: "InnerProduct"
  bottom: "pool5"
  top: "fc6"
  param {
    lr_mult: 1
  }
  param {
    lr_mult: 2
  }
  inner_product_param {
    num_output: 4096
  }
}
layer {
  name: "relu6"
  type: "ReLU"
  bottom: "fc6"
  top: "fc6"
}
layer {
  name: "drop6"
  type: "Dropout"
  bottom: "fc6"
  top: "fc6"
  dropout_param {
    dropout_ratio: 0.5
  }
}
layer {
  name: "fc7"
  type: "InnerProduct"
  bottom: "fc6"
  top: "fc7"
  param {
    lr_mult: 1
  }
  param {
    lr_mult: 2
  }
  inner_product_param {
    num_output: 4096
  }
}
layer {
  name: "relu7"
  type: "ReLU"
  bottom: "fc7"
  top: "fc7"
}
layer {
  name: "drop7"
  type: "Dropout"
  bottom: "fc7"
  top: "fc7"
  dropout_param {
    dropout_ratio: 0.5
  }
}
layer {
  name: "cls_score"
  type: "InnerProduct"
  bottom: "fc7"
  top: "cls_score"
  param {
    lr_mult: 1
  }
  param {
    lr_mult: 2
  }
  inner_product_param {
    num_output: 3
    weight_filler {
      type: "gaussian"
      std: 0.01
    }
    bias_filler {
      type: "constant"
      value: 0
    }
  }
}
layer {
  name: "bbox_pred"
  type: "InnerProduct"
  bottom: "fc7"
  top: "bbox_pred"
  param {
    lr_mult: 1
  }
  param {
    lr_mult: 2
  }
  inner_product_param {
    num_output: 12
    weight_filler {
      type: "gaussian"
      std: 0.001
    }
    bias_filler {
      type: "constant"
      value: 0
    }
  }
}
layer {
  name: "loss_cls"
  type: "SoftmaxWithLoss"
  bottom: "cls_score"
  bottom: "labels"
  top: "loss_cls"
  loss_weight: 1
  propagate_down: true
  propagate_down: false
}
layer {
  name: "loss_bbox"
  type: "SmoothL1Loss"
  bottom: "bbox_pred"
  bottom: "bbox_targets"
  bottom: "bbox_inside_weights"
  bottom: "bbox_outside_weights"
  top: "loss_bbox"
  loss_weight: 1
}
I1104 10:29:02.557884 21478 layer_factory.hpp:77] Creating layer input-data
I1104 10:29:02.561079 21478 net.cpp:106] Creating Layer input-data
I1104 10:29:02.561089 21478 net.cpp:411] input-data -> data
I1104 10:29:02.561096 21478 net.cpp:411] input-data -> im_info
I1104 10:29:02.561101 21478 net.cpp:411] input-data -> gt_boxes
I1104 10:29:03.058344 21478 net.cpp:150] Setting up input-data
I1104 10:29:03.058367 21478 net.cpp:157] Top shape: 1 3 480 1000 (1440000)
I1104 10:29:03.058372 21478 net.cpp:157] Top shape: 1 3 (3)
I1104 10:29:03.058375 21478 net.cpp:157] Top shape: 1 4 (4)
I1104 10:29:03.058377 21478 net.cpp:165] Memory required for data: 5760028
I1104 10:29:03.058382 21478 layer_factory.hpp:77] Creating layer data_input-data_0_split
I1104 10:29:03.058395 21478 net.cpp:106] Creating Layer data_input-data_0_split
I1104 10:29:03.058398 21478 net.cpp:454] data_input-data_0_split <- data
I1104 10:29:03.058403 21478 net.cpp:411] data_input-data_0_split -> data_input-data_0_split_0
I1104 10:29:03.058410 21478 net.cpp:411] data_input-data_0_split -> data_input-data_0_split_1
I1104 10:29:03.058432 21478 net.cpp:150] Setting up data_input-data_0_split
I1104 10:29:03.058436 21478 net.cpp:157] Top shape: 1 3 480 1000 (1440000)
I1104 10:29:03.058440 21478 net.cpp:157] Top shape: 1 3 480 1000 (1440000)
I1104 10:29:03.058442 21478 net.cpp:165] Memory required for data: 17280028
I1104 10:29:03.058445 21478 layer_factory.hpp:77] Creating layer im_info_input-data_1_split
I1104 10:29:03.058449 21478 net.cpp:106] Creating Layer im_info_input-data_1_split
I1104 10:29:03.058452 21478 net.cpp:454] im_info_input-data_1_split <- im_info
I1104 10:29:03.058455 21478 net.cpp:411] im_info_input-data_1_split -> im_info_input-data_1_split_0
I1104 10:29:03.058459 21478 net.cpp:411] im_info_input-data_1_split -> im_info_input-data_1_split_1
I1104 10:29:03.058478 21478 net.cpp:150] Setting up im_info_input-data_1_split
I1104 10:29:03.058492 21478 net.cpp:157] Top shape: 1 3 (3)
I1104 10:29:03.058495 21478 net.cpp:157] Top shape: 1 3 (3)
I1104 10:29:03.058498 21478 net.cpp:165] Memory required for data: 17280052
I1104 10:29:03.058516 21478 layer_factory.hpp:77] Creating layer gt_boxes_input-data_2_split
I1104 10:29:03.058519 21478 net.cpp:106] Creating Layer gt_boxes_input-data_2_split
I1104 10:29:03.058522 21478 net.cpp:454] gt_boxes_input-data_2_split <- gt_boxes
I1104 10:29:03.058526 21478 net.cpp:411] gt_boxes_input-data_2_split -> gt_boxes_input-data_2_split_0
I1104 10:29:03.058531 21478 net.cpp:411] gt_boxes_input-data_2_split -> gt_boxes_input-data_2_split_1
I1104 10:29:03.058576 21478 net.cpp:150] Setting up gt_boxes_input-data_2_split
I1104 10:29:03.058593 21478 net.cpp:157] Top shape: 1 4 (4)
I1104 10:29:03.058596 21478 net.cpp:157] Top shape: 1 4 (4)
I1104 10:29:03.058599 21478 net.cpp:165] Memory required for data: 17280084
I1104 10:29:03.058601 21478 layer_factory.hpp:77] Creating layer conv1_1
I1104 10:29:03.058609 21478 net.cpp:106] Creating Layer conv1_1
I1104 10:29:03.058611 21478 net.cpp:454] conv1_1 <- data_input-data_0_split_0
I1104 10:29:03.058614 21478 net.cpp:411] conv1_1 -> conv1_1
I1104 10:29:03.059886 21478 net.cpp:150] Setting up conv1_1
I1104 10:29:03.059896 21478 net.cpp:157] Top shape: 1 64 480 1000 (30720000)
I1104 10:29:03.059900 21478 net.cpp:165] Memory required for data: 140160084
I1104 10:29:03.059907 21478 layer_factory.hpp:77] Creating layer relu1_1
I1104 10:29:03.059912 21478 net.cpp:106] Creating Layer relu1_1
I1104 10:29:03.059916 21478 net.cpp:454] relu1_1 <- conv1_1
I1104 10:29:03.059919 21478 net.cpp:397] relu1_1 -> conv1_1 (in-place)
I1104 10:29:03.059924 21478 net.cpp:150] Setting up relu1_1
I1104 10:29:03.059927 21478 net.cpp:157] Top shape: 1 64 480 1000 (30720000)
I1104 10:29:03.059931 21478 net.cpp:165] Memory required for data: 263040084
I1104 10:29:03.059932 21478 layer_factory.hpp:77] Creating layer conv1_2
I1104 10:29:03.059938 21478 net.cpp:106] Creating Layer conv1_2
I1104 10:29:03.059942 21478 net.cpp:454] conv1_2 <- conv1_1
I1104 10:29:03.059945 21478 net.cpp:411] conv1_2 -> conv1_2
I1104 10:29:03.061214 21478 net.cpp:150] Setting up conv1_2
I1104 10:29:03.061224 21478 net.cpp:157] Top shape: 1 64 480 1000 (30720000)
I1104 10:29:03.061228 21478 net.cpp:165] Memory required for data: 385920084
I1104 10:29:03.061234 21478 layer_factory.hpp:77] Creating layer relu1_2
I1104 10:29:03.061239 21478 net.cpp:106] Creating Layer relu1_2
I1104 10:29:03.061242 21478 net.cpp:454] relu1_2 <- conv1_2
I1104 10:29:03.061246 21478 net.cpp:397] relu1_2 -> conv1_2 (in-place)
I1104 10:29:03.061251 21478 net.cpp:150] Setting up relu1_2
I1104 10:29:03.061255 21478 net.cpp:157] Top shape: 1 64 480 1000 (30720000)
I1104 10:29:03.061257 21478 net.cpp:165] Memory required for data: 508800084
I1104 10:29:03.061260 21478 layer_factory.hpp:77] Creating layer pool1
I1104 10:29:03.061269 21478 net.cpp:106] Creating Layer pool1
I1104 10:29:03.061272 21478 net.cpp:454] pool1 <- conv1_2
I1104 10:29:03.061276 21478 net.cpp:411] pool1 -> pool1
I1104 10:29:03.061302 21478 net.cpp:150] Setting up pool1
I1104 10:29:03.061306 21478 net.cpp:157] Top shape: 1 64 240 500 (7680000)
I1104 10:29:03.061309 21478 net.cpp:165] Memory required for data: 539520084
I1104 10:29:03.061311 21478 layer_factory.hpp:77] Creating layer conv2_1
I1104 10:29:03.061317 21478 net.cpp:106] Creating Layer conv2_1
I1104 10:29:03.061321 21478 net.cpp:454] conv2_1 <- pool1
I1104 10:29:03.061324 21478 net.cpp:411] conv2_1 -> conv2_1
I1104 10:29:03.062005 21478 net.cpp:150] Setting up conv2_1
I1104 10:29:03.062013 21478 net.cpp:157] Top shape: 1 128 240 500 (15360000)
I1104 10:29:03.062016 21478 net.cpp:165] Memory required for data: 600960084
I1104 10:29:03.062022 21478 layer_factory.hpp:77] Creating layer relu2_1
I1104 10:29:03.062028 21478 net.cpp:106] Creating Layer relu2_1
I1104 10:29:03.062031 21478 net.cpp:454] relu2_1 <- conv2_1
I1104 10:29:03.062034 21478 net.cpp:397] relu2_1 -> conv2_1 (in-place)
I1104 10:29:03.062039 21478 net.cpp:150] Setting up relu2_1
I1104 10:29:03.062042 21478 net.cpp:157] Top shape: 1 128 240 500 (15360000)
I1104 10:29:03.062045 21478 net.cpp:165] Memory required for data: 662400084
I1104 10:29:03.062047 21478 layer_factory.hpp:77] Creating layer conv2_2
I1104 10:29:03.062053 21478 net.cpp:106] Creating Layer conv2_2
I1104 10:29:03.062057 21478 net.cpp:454] conv2_2 <- conv2_1
I1104 10:29:03.062059 21478 net.cpp:411] conv2_2 -> conv2_2
I1104 10:29:03.062290 21478 net.cpp:150] Setting up conv2_2
I1104 10:29:03.062296 21478 net.cpp:157] Top shape: 1 128 240 500 (15360000)
I1104 10:29:03.062299 21478 net.cpp:165] Memory required for data: 723840084
I1104 10:29:03.062304 21478 layer_factory.hpp:77] Creating layer relu2_2
I1104 10:29:03.062306 21478 net.cpp:106] Creating Layer relu2_2
I1104 10:29:03.062309 21478 net.cpp:454] relu2_2 <- conv2_2
I1104 10:29:03.062312 21478 net.cpp:397] relu2_2 -> conv2_2 (in-place)
I1104 10:29:03.062316 21478 net.cpp:150] Setting up relu2_2
I1104 10:29:03.062320 21478 net.cpp:157] Top shape: 1 128 240 500 (15360000)
I1104 10:29:03.062322 21478 net.cpp:165] Memory required for data: 785280084
I1104 10:29:03.062325 21478 layer_factory.hpp:77] Creating layer pool2
I1104 10:29:03.062330 21478 net.cpp:106] Creating Layer pool2
I1104 10:29:03.062332 21478 net.cpp:454] pool2 <- conv2_2
I1104 10:29:03.062336 21478 net.cpp:411] pool2 -> pool2
I1104 10:29:03.062357 21478 net.cpp:150] Setting up pool2
I1104 10:29:03.062361 21478 net.cpp:157] Top shape: 1 128 120 250 (3840000)
I1104 10:29:03.062364 21478 net.cpp:165] Memory required for data: 800640084
I1104 10:29:03.062367 21478 layer_factory.hpp:77] Creating layer conv3_1
I1104 10:29:03.062371 21478 net.cpp:106] Creating Layer conv3_1
I1104 10:29:03.062374 21478 net.cpp:454] conv3_1 <- pool2
I1104 10:29:03.062378 21478 net.cpp:411] conv3_1 -> conv3_1
I1104 10:29:03.063190 21478 net.cpp:150] Setting up conv3_1
I1104 10:29:03.063200 21478 net.cpp:157] Top shape: 1 256 120 250 (7680000)
I1104 10:29:03.063204 21478 net.cpp:165] Memory required for data: 831360084
I1104 10:29:03.063210 21478 layer_factory.hpp:77] Creating layer relu3_1
I1104 10:29:03.063215 21478 net.cpp:106] Creating Layer relu3_1
I1104 10:29:03.063217 21478 net.cpp:454] relu3_1 <- conv3_1
I1104 10:29:03.063221 21478 net.cpp:397] relu3_1 -> conv3_1 (in-place)
I1104 10:29:03.063226 21478 net.cpp:150] Setting up relu3_1
I1104 10:29:03.063230 21478 net.cpp:157] Top shape: 1 256 120 250 (7680000)
I1104 10:29:03.063232 21478 net.cpp:165] Memory required for data: 862080084
I1104 10:29:03.063235 21478 layer_factory.hpp:77] Creating layer conv3_2
I1104 10:29:03.063241 21478 net.cpp:106] Creating Layer conv3_2
I1104 10:29:03.063243 21478 net.cpp:454] conv3_2 <- conv3_1
I1104 10:29:03.063247 21478 net.cpp:411] conv3_2 -> conv3_2
I1104 10:29:03.064162 21478 net.cpp:150] Setting up conv3_2
I1104 10:29:03.064172 21478 net.cpp:157] Top shape: 1 256 120 250 (7680000)
I1104 10:29:03.064178 21478 net.cpp:165] Memory required for data: 892800084
I1104 10:29:03.064183 21478 layer_factory.hpp:77] Creating layer relu3_2
I1104 10:29:03.064188 21478 net.cpp:106] Creating Layer relu3_2
I1104 10:29:03.064191 21478 net.cpp:454] relu3_2 <- conv3_2
I1104 10:29:03.064194 21478 net.cpp:397] relu3_2 -> conv3_2 (in-place)
I1104 10:29:03.064199 21478 net.cpp:150] Setting up relu3_2
I1104 10:29:03.064203 21478 net.cpp:157] Top shape: 1 256 120 250 (7680000)
I1104 10:29:03.064205 21478 net.cpp:165] Memory required for data: 923520084
I1104 10:29:03.064208 21478 layer_factory.hpp:77] Creating layer conv3_3
I1104 10:29:03.064213 21478 net.cpp:106] Creating Layer conv3_3
I1104 10:29:03.064216 21478 net.cpp:454] conv3_3 <- conv3_2
I1104 10:29:03.064219 21478 net.cpp:411] conv3_3 -> conv3_3
I1104 10:29:03.065136 21478 net.cpp:150] Setting up conv3_3
I1104 10:29:03.065145 21478 net.cpp:157] Top shape: 1 256 120 250 (7680000)
I1104 10:29:03.065148 21478 net.cpp:165] Memory required for data: 954240084
I1104 10:29:03.065152 21478 layer_factory.hpp:77] Creating layer relu3_3
I1104 10:29:03.065157 21478 net.cpp:106] Creating Layer relu3_3
I1104 10:29:03.065160 21478 net.cpp:454] relu3_3 <- conv3_3
I1104 10:29:03.065165 21478 net.cpp:397] relu3_3 -> conv3_3 (in-place)
I1104 10:29:03.065168 21478 net.cpp:150] Setting up relu3_3
I1104 10:29:03.065172 21478 net.cpp:157] Top shape: 1 256 120 250 (7680000)
I1104 10:29:03.065174 21478 net.cpp:165] Memory required for data: 984960084
I1104 10:29:03.065177 21478 layer_factory.hpp:77] Creating layer pool3
I1104 10:29:03.065181 21478 net.cpp:106] Creating Layer pool3
I1104 10:29:03.065184 21478 net.cpp:454] pool3 <- conv3_3
I1104 10:29:03.065188 21478 net.cpp:411] pool3 -> pool3
I1104 10:29:03.065210 21478 net.cpp:150] Setting up pool3
I1104 10:29:03.065215 21478 net.cpp:157] Top shape: 1 256 60 125 (1920000)
I1104 10:29:03.065218 21478 net.cpp:165] Memory required for data: 992640084
I1104 10:29:03.065220 21478 layer_factory.hpp:77] Creating layer conv4_1
I1104 10:29:03.065225 21478 net.cpp:106] Creating Layer conv4_1
I1104 10:29:03.065227 21478 net.cpp:454] conv4_1 <- pool3
I1104 10:29:03.065232 21478 net.cpp:411] conv4_1 -> conv4_1
I1104 10:29:03.067850 21478 net.cpp:150] Setting up conv4_1
I1104 10:29:03.067870 21478 net.cpp:157] Top shape: 1 512 60 125 (3840000)
I1104 10:29:03.067874 21478 net.cpp:165] Memory required for data: 1008000084
I1104 10:29:03.067880 21478 layer_factory.hpp:77] Creating layer relu4_1
I1104 10:29:03.067886 21478 net.cpp:106] Creating Layer relu4_1
I1104 10:29:03.067890 21478 net.cpp:454] relu4_1 <- conv4_1
I1104 10:29:03.067895 21478 net.cpp:397] relu4_1 -> conv4_1 (in-place)
I1104 10:29:03.067901 21478 net.cpp:150] Setting up relu4_1
I1104 10:29:03.067905 21478 net.cpp:157] Top shape: 1 512 60 125 (3840000)
I1104 10:29:03.067908 21478 net.cpp:165] Memory required for data: 1023360084
I1104 10:29:03.067910 21478 layer_factory.hpp:77] Creating layer conv4_2
I1104 10:29:03.067915 21478 net.cpp:106] Creating Layer conv4_2
I1104 10:29:03.067919 21478 net.cpp:454] conv4_2 <- conv4_1
I1104 10:29:03.067924 21478 net.cpp:411] conv4_2 -> conv4_2
I1104 10:29:03.071182 21478 net.cpp:150] Setting up conv4_2
I1104 10:29:03.071208 21478 net.cpp:157] Top shape: 1 512 60 125 (3840000)
I1104 10:29:03.071210 21478 net.cpp:165] Memory required for data: 1038720084
I1104 10:29:03.071221 21478 layer_factory.hpp:77] Creating layer relu4_2
I1104 10:29:03.071228 21478 net.cpp:106] Creating Layer relu4_2
I1104 10:29:03.071233 21478 net.cpp:454] relu4_2 <- conv4_2
I1104 10:29:03.071236 21478 net.cpp:397] relu4_2 -> conv4_2 (in-place)
I1104 10:29:03.071244 21478 net.cpp:150] Setting up relu4_2
I1104 10:29:03.071246 21478 net.cpp:157] Top shape: 1 512 60 125 (3840000)
I1104 10:29:03.071249 21478 net.cpp:165] Memory required for data: 1054080084
I1104 10:29:03.071251 21478 layer_factory.hpp:77] Creating layer conv4_3
I1104 10:29:03.071259 21478 net.cpp:106] Creating Layer conv4_3
I1104 10:29:03.071260 21478 net.cpp:454] conv4_3 <- conv4_2
I1104 10:29:03.071264 21478 net.cpp:411] conv4_3 -> conv4_3
I1104 10:29:03.075634 21478 net.cpp:150] Setting up conv4_3
I1104 10:29:03.075660 21478 net.cpp:157] Top shape: 1 512 60 125 (3840000)
I1104 10:29:03.075664 21478 net.cpp:165] Memory required for data: 1069440084
I1104 10:29:03.075670 21478 layer_factory.hpp:77] Creating layer relu4_3
I1104 10:29:03.075677 21478 net.cpp:106] Creating Layer relu4_3
I1104 10:29:03.075683 21478 net.cpp:454] relu4_3 <- conv4_3
I1104 10:29:03.075687 21478 net.cpp:397] relu4_3 -> conv4_3 (in-place)
I1104 10:29:03.075693 21478 net.cpp:150] Setting up relu4_3
I1104 10:29:03.075697 21478 net.cpp:157] Top shape: 1 512 60 125 (3840000)
I1104 10:29:03.075700 21478 net.cpp:165] Memory required for data: 1084800084
I1104 10:29:03.075702 21478 layer_factory.hpp:77] Creating layer pool4
I1104 10:29:03.075706 21478 net.cpp:106] Creating Layer pool4
I1104 10:29:03.075709 21478 net.cpp:454] pool4 <- conv4_3
I1104 10:29:03.075714 21478 net.cpp:411] pool4 -> pool4
I1104 10:29:03.075740 21478 net.cpp:150] Setting up pool4
I1104 10:29:03.075744 21478 net.cpp:157] Top shape: 1 512 30 63 (967680)
I1104 10:29:03.075747 21478 net.cpp:165] Memory required for data: 1088670804
I1104 10:29:03.075749 21478 layer_factory.hpp:77] Creating layer conv5_1
I1104 10:29:03.075757 21478 net.cpp:106] Creating Layer conv5_1
I1104 10:29:03.075759 21478 net.cpp:454] conv5_1 <- pool4
I1104 10:29:03.075764 21478 net.cpp:411] conv5_1 -> conv5_1
I1104 10:29:03.079124 21478 net.cpp:150] Setting up conv5_1
I1104 10:29:03.079151 21478 net.cpp:157] Top shape: 1 512 30 63 (967680)
I1104 10:29:03.079154 21478 net.cpp:165] Memory required for data: 1092541524
I1104 10:29:03.079160 21478 layer_factory.hpp:77] Creating layer relu5_1
I1104 10:29:03.079166 21478 net.cpp:106] Creating Layer relu5_1
I1104 10:29:03.079170 21478 net.cpp:454] relu5_1 <- conv5_1
I1104 10:29:03.079174 21478 net.cpp:397] relu5_1 -> conv5_1 (in-place)
I1104 10:29:03.079180 21478 net.cpp:150] Setting up relu5_1
I1104 10:29:03.079185 21478 net.cpp:157] Top shape: 1 512 30 63 (967680)
I1104 10:29:03.079186 21478 net.cpp:165] Memory required for data: 1096412244
I1104 10:29:03.079190 21478 layer_factory.hpp:77] Creating layer conv5_2
I1104 10:29:03.079195 21478 net.cpp:106] Creating Layer conv5_2
I1104 10:29:03.079198 21478 net.cpp:454] conv5_2 <- conv5_1
I1104 10:29:03.079202 21478 net.cpp:411] conv5_2 -> conv5_2
I1104 10:29:03.082476 21478 net.cpp:150] Setting up conv5_2
I1104 10:29:03.082553 21478 net.cpp:157] Top shape: 1 512 30 63 (967680)
I1104 10:29:03.082557 21478 net.cpp:165] Memory required for data: 1100282964
I1104 10:29:03.082576 21478 layer_factory.hpp:77] Creating layer relu5_2
I1104 10:29:03.082597 21478 net.cpp:106] Creating Layer relu5_2
I1104 10:29:03.082600 21478 net.cpp:454] relu5_2 <- conv5_2
I1104 10:29:03.082617 21478 net.cpp:397] relu5_2 -> conv5_2 (in-place)
I1104 10:29:03.082623 21478 net.cpp:150] Setting up relu5_2
I1104 10:29:03.082626 21478 net.cpp:157] Top shape: 1 512 30 63 (967680)
I1104 10:29:03.082629 21478 net.cpp:165] Memory required for data: 1104153684
I1104 10:29:03.082633 21478 layer_factory.hpp:77] Creating layer conv5_3
I1104 10:29:03.082640 21478 net.cpp:106] Creating Layer conv5_3
I1104 10:29:03.082643 21478 net.cpp:454] conv5_3 <- conv5_2
I1104 10:29:03.082648 21478 net.cpp:411] conv5_3 -> conv5_3
I1104 10:29:03.085924 21478 net.cpp:150] Setting up conv5_3
I1104 10:29:03.085949 21478 net.cpp:157] Top shape: 1 512 30 63 (967680)
I1104 10:29:03.085952 21478 net.cpp:165] Memory required for data: 1108024404
I1104 10:29:03.085958 21478 layer_factory.hpp:77] Creating layer relu5_3
I1104 10:29:03.085965 21478 net.cpp:106] Creating Layer relu5_3
I1104 10:29:03.085969 21478 net.cpp:454] relu5_3 <- conv5_3
I1104 10:29:03.085973 21478 net.cpp:397] relu5_3 -> conv5_3 (in-place)
I1104 10:29:03.085979 21478 net.cpp:150] Setting up relu5_3
I1104 10:29:03.085983 21478 net.cpp:157] Top shape: 1 512 30 63 (967680)
I1104 10:29:03.085985 21478 net.cpp:165] Memory required for data: 1111895124
I1104 10:29:03.085988 21478 layer_factory.hpp:77] Creating layer conv5_3_relu5_3_0_split
I1104 10:29:03.085999 21478 net.cpp:106] Creating Layer conv5_3_relu5_3_0_split
I1104 10:29:03.086001 21478 net.cpp:454] conv5_3_relu5_3_0_split <- conv5_3
I1104 10:29:03.086005 21478 net.cpp:411] conv5_3_relu5_3_0_split -> conv5_3_relu5_3_0_split_0
I1104 10:29:03.086010 21478 net.cpp:411] conv5_3_relu5_3_0_split -> conv5_3_relu5_3_0_split_1
I1104 10:29:03.086035 21478 net.cpp:150] Setting up conv5_3_relu5_3_0_split
I1104 10:29:03.086040 21478 net.cpp:157] Top shape: 1 512 30 63 (967680)
I1104 10:29:03.086042 21478 net.cpp:157] Top shape: 1 512 30 63 (967680)
I1104 10:29:03.086045 21478 net.cpp:165] Memory required for data: 1119636564
I1104 10:29:03.086047 21478 layer_factory.hpp:77] Creating layer rpn_conv/3x3
I1104 10:29:03.086055 21478 net.cpp:106] Creating Layer rpn_conv/3x3
I1104 10:29:03.086057 21478 net.cpp:454] rpn_conv/3x3 <- conv5_3_relu5_3_0_split_0
I1104 10:29:03.086061 21478 net.cpp:411] rpn_conv/3x3 -> rpn/output
I1104 10:29:03.130748 21478 net.cpp:150] Setting up rpn_conv/3x3
I1104 10:29:03.130774 21478 net.cpp:157] Top shape: 1 512 30 63 (967680)
I1104 10:29:03.130776 21478 net.cpp:165] Memory required for data: 1123507284
I1104 10:29:03.130784 21478 layer_factory.hpp:77] Creating layer rpn_relu/3x3
I1104 10:29:03.130790 21478 net.cpp:106] Creating Layer rpn_relu/3x3
I1104 10:29:03.130794 21478 net.cpp:454] rpn_relu/3x3 <- rpn/output
I1104 10:29:03.130798 21478 net.cpp:397] rpn_relu/3x3 -> rpn/output (in-place)
I1104 10:29:03.130805 21478 net.cpp:150] Setting up rpn_relu/3x3
I1104 10:29:03.130808 21478 net.cpp:157] Top shape: 1 512 30 63 (967680)
I1104 10:29:03.130811 21478 net.cpp:165] Memory required for data: 1127378004
I1104 10:29:03.130813 21478 layer_factory.hpp:77] Creating layer rpn/output_rpn_relu/3x3_0_split
I1104 10:29:03.130817 21478 net.cpp:106] Creating Layer rpn/output_rpn_relu/3x3_0_split
I1104 10:29:03.130820 21478 net.cpp:454] rpn/output_rpn_relu/3x3_0_split <- rpn/output
I1104 10:29:03.130825 21478 net.cpp:411] rpn/output_rpn_relu/3x3_0_split -> rpn/output_rpn_relu/3x3_0_split_0
I1104 10:29:03.130828 21478 net.cpp:411] rpn/output_rpn_relu/3x3_0_split -> rpn/output_rpn_relu/3x3_0_split_1
I1104 10:29:03.130852 21478 net.cpp:150] Setting up rpn/output_rpn_relu/3x3_0_split
I1104 10:29:03.130857 21478 net.cpp:157] Top shape: 1 512 30 63 (967680)
I1104 10:29:03.130861 21478 net.cpp:157] Top shape: 1 512 30 63 (967680)
I1104 10:29:03.130863 21478 net.cpp:165] Memory required for data: 1135119444
I1104 10:29:03.130866 21478 layer_factory.hpp:77] Creating layer rpn_cls_score
I1104 10:29:03.130872 21478 net.cpp:106] Creating Layer rpn_cls_score
I1104 10:29:03.130874 21478 net.cpp:454] rpn_cls_score <- rpn/output_rpn_relu/3x3_0_split_0
I1104 10:29:03.130880 21478 net.cpp:411] rpn_cls_score -> rpn_cls_score
I1104 10:29:03.131191 21478 net.cpp:150] Setting up rpn_cls_score
I1104 10:29:03.131196 21478 net.cpp:157] Top shape: 1 18 30 63 (34020)
I1104 10:29:03.131199 21478 net.cpp:165] Memory required for data: 1135255524
I1104 10:29:03.131203 21478 layer_factory.hpp:77] Creating layer rpn_cls_score_rpn_cls_score_0_split
I1104 10:29:03.131206 21478 net.cpp:106] Creating Layer rpn_cls_score_rpn_cls_score_0_split
I1104 10:29:03.131209 21478 net.cpp:454] rpn_cls_score_rpn_cls_score_0_split <- rpn_cls_score
I1104 10:29:03.131214 21478 net.cpp:411] rpn_cls_score_rpn_cls_score_0_split -> rpn_cls_score_rpn_cls_score_0_split_0
I1104 10:29:03.131222 21478 net.cpp:411] rpn_cls_score_rpn_cls_score_0_split -> rpn_cls_score_rpn_cls_score_0_split_1
I1104 10:29:03.131243 21478 net.cpp:150] Setting up rpn_cls_score_rpn_cls_score_0_split
I1104 10:29:03.131248 21478 net.cpp:157] Top shape: 1 18 30 63 (34020)
I1104 10:29:03.131252 21478 net.cpp:157] Top shape: 1 18 30 63 (34020)
I1104 10:29:03.131253 21478 net.cpp:165] Memory required for data: 1135527684
I1104 10:29:03.131256 21478 layer_factory.hpp:77] Creating layer rpn_bbox_pred
I1104 10:29:03.131261 21478 net.cpp:106] Creating Layer rpn_bbox_pred
I1104 10:29:03.131264 21478 net.cpp:454] rpn_bbox_pred <- rpn/output_rpn_relu/3x3_0_split_1
I1104 10:29:03.131269 21478 net.cpp:411] rpn_bbox_pred -> rpn_bbox_pred
I1104 10:29:03.131774 21478 net.cpp:150] Setting up rpn_bbox_pred
I1104 10:29:03.131779 21478 net.cpp:157] Top shape: 1 36 30 63 (68040)
I1104 10:29:03.131783 21478 net.cpp:165] Memory required for data: 1135799844
I1104 10:29:03.131786 21478 layer_factory.hpp:77] Creating layer rpn_bbox_pred_rpn_bbox_pred_0_split
I1104 10:29:03.131790 21478 net.cpp:106] Creating Layer rpn_bbox_pred_rpn_bbox_pred_0_split
I1104 10:29:03.131793 21478 net.cpp:454] rpn_bbox_pred_rpn_bbox_pred_0_split <- rpn_bbox_pred
I1104 10:29:03.131798 21478 net.cpp:411] rpn_bbox_pred_rpn_bbox_pred_0_split -> rpn_bbox_pred_rpn_bbox_pred_0_split_0
I1104 10:29:03.131801 21478 net.cpp:411] rpn_bbox_pred_rpn_bbox_pred_0_split -> rpn_bbox_pred_rpn_bbox_pred_0_split_1
I1104 10:29:03.131822 21478 net.cpp:150] Setting up rpn_bbox_pred_rpn_bbox_pred_0_split
I1104 10:29:03.131826 21478 net.cpp:157] Top shape: 1 36 30 63 (68040)
I1104 10:29:03.131829 21478 net.cpp:157] Top shape: 1 36 30 63 (68040)
I1104 10:29:03.131832 21478 net.cpp:165] Memory required for data: 1136344164
I1104 10:29:03.131834 21478 layer_factory.hpp:77] Creating layer rpn_cls_score_reshape
I1104 10:29:03.131840 21478 net.cpp:106] Creating Layer rpn_cls_score_reshape
I1104 10:29:03.131844 21478 net.cpp:454] rpn_cls_score_reshape <- rpn_cls_score_rpn_cls_score_0_split_0
I1104 10:29:03.131847 21478 net.cpp:411] rpn_cls_score_reshape -> rpn_cls_score_reshape
I1104 10:29:03.131861 21478 net.cpp:150] Setting up rpn_cls_score_reshape
I1104 10:29:03.131865 21478 net.cpp:157] Top shape: 1 2 270 63 (34020)
I1104 10:29:03.131868 21478 net.cpp:165] Memory required for data: 1136480244
I1104 10:29:03.131870 21478 layer_factory.hpp:77] Creating layer rpn_cls_score_reshape_rpn_cls_score_reshape_0_split
I1104 10:29:03.131875 21478 net.cpp:106] Creating Layer rpn_cls_score_reshape_rpn_cls_score_reshape_0_split
I1104 10:29:03.131876 21478 net.cpp:454] rpn_cls_score_reshape_rpn_cls_score_reshape_0_split <- rpn_cls_score_reshape
I1104 10:29:03.131884 21478 net.cpp:411] rpn_cls_score_reshape_rpn_cls_score_reshape_0_split -> rpn_cls_score_reshape_rpn_cls_score_reshape_0_split_0
I1104 10:29:03.131889 21478 net.cpp:411] rpn_cls_score_reshape_rpn_cls_score_reshape_0_split -> rpn_cls_score_reshape_rpn_cls_score_reshape_0_split_1
I1104 10:29:03.131908 21478 net.cpp:150] Setting up rpn_cls_score_reshape_rpn_cls_score_reshape_0_split
I1104 10:29:03.131913 21478 net.cpp:157] Top shape: 1 2 270 63 (34020)
I1104 10:29:03.131916 21478 net.cpp:157] Top shape: 1 2 270 63 (34020)
I1104 10:29:03.131919 21478 net.cpp:165] Memory required for data: 1136752404
I1104 10:29:03.131922 21478 layer_factory.hpp:77] Creating layer rpn-data
I1104 10:29:03.132988 21478 net.cpp:106] Creating Layer rpn-data
I1104 10:29:03.132997 21478 net.cpp:454] rpn-data <- rpn_cls_score_rpn_cls_score_0_split_1
I1104 10:29:03.133002 21478 net.cpp:454] rpn-data <- gt_boxes_input-data_2_split_0
I1104 10:29:03.133005 21478 net.cpp:454] rpn-data <- im_info_input-data_1_split_0
I1104 10:29:03.133009 21478 net.cpp:454] rpn-data <- data_input-data_0_split_1
I1104 10:29:03.133013 21478 net.cpp:411] rpn-data -> rpn_labels
I1104 10:29:03.133019 21478 net.cpp:411] rpn-data -> rpn_bbox_targets
I1104 10:29:03.133024 21478 net.cpp:411] rpn-data -> rpn_bbox_inside_weights
I1104 10:29:03.133028 21478 net.cpp:411] rpn-data -> rpn_bbox_outside_weights
I1104 10:29:03.133482 21478 net.cpp:150] Setting up rpn-data
I1104 10:29:03.133492 21478 net.cpp:157] Top shape: 1 1 270 63 (17010)
I1104 10:29:03.133496 21478 net.cpp:157] Top shape: 1 36 30 63 (68040)
I1104 10:29:03.133499 21478 net.cpp:157] Top shape: 1 36 30 63 (68040)
I1104 10:29:03.133502 21478 net.cpp:157] Top shape: 1 36 30 63 (68040)
I1104 10:29:03.133505 21478 net.cpp:165] Memory required for data: 1137636924
I1104 10:29:03.133508 21478 layer_factory.hpp:77] Creating layer rpn_loss_cls
I1104 10:29:03.133513 21478 net.cpp:106] Creating Layer rpn_loss_cls
I1104 10:29:03.133517 21478 net.cpp:454] rpn_loss_cls <- rpn_cls_score_reshape_rpn_cls_score_reshape_0_split_0
I1104 10:29:03.133524 21478 net.cpp:454] rpn_loss_cls <- rpn_labels
…
I1104 10:29:03.134007 21478 net.cpp:157] Top shape: (1)
I1104 10:29:03.134009 21478 net.cpp:160]     with loss weight 1
I1104 10:29:03.134013 21478 net.cpp:165] Memory required for data: 1137636932
I1104 10:29:03.134016 21478 layer_factory.hpp:77] Creating layer rpn_cls_prob
I1104 10:29:03.134019 21478 net.cpp:106] Creating Layer rpn_cls_prob
I1104 10:29:03.134022 21478 net.cpp:454] rpn_cls_prob <- rpn_cls_score_reshape_rpn_cls_score_reshape_0_split_1
I1104 10:29:03.134027 21478 net.cpp:411] rpn_cls_prob -> rpn_cls_prob
I1104 10:29:03.134063 21478 net.cpp:150] Setting up rpn_cls_prob
I1104 10:29:03.134066 21478 net.cpp:157] Top shape: 1 2 270 63 (34020)
I1104 10:29:03.134069 21478 net.cpp:165] Memory required for data: 1137773012
I1104 10:29:03.134071 21478 layer_factory.hpp:77] Creating layer rpn_cls_prob_reshape
I1104 10:29:03.134075 21478 net.cpp:106] Creating Layer rpn_cls_prob_reshape
I1104 10:29:03.134078 21478 net.cpp:454] rpn_cls_prob_reshape <- rpn_cls_prob
I1104 10:29:03.134083 21478 net.cpp:411] rpn_cls_prob_reshape -> rpn_cls_prob_reshape
I1104 10:29:03.134096 21478 net.cpp:150] Setting up rpn_cls_prob_reshape
I1104 10:29:03.134100 21478 net.cpp:157] Top shape: 1 18 30 63 (34020)
I1104 10:29:03.134102 21478 net.cpp:165] Memory required for data: 1137909092
I1104 10:29:03.134105 21478 layer_factory.hpp:77] Creating layer proposal
I1104 10:29:03.139366 21478 net.cpp:106] Creating Layer proposal
I1104 10:29:03.139381 21478 net.cpp:454] proposal <- rpn_cls_prob_reshape
I1104 10:29:03.139386 21478 net.cpp:454] proposal <- rpn_bbox_pred_rpn_bbox_pred_0_split_1
I1104 10:29:03.139390 21478 net.cpp:454] proposal <- im_info_input-data_1_split_1
I1104 10:29:03.139394 21478 net.cpp:411] proposal -> rpn_rois
I1104 10:29:03.140230 21478 net.cpp:150] Setting up proposal
I1104 10:29:03.140241 21478 net.cpp:157] Top shape: 1 5 (5)
I1104 10:29:03.140244 21478 net.cpp:165] Memory required for data: 1137909112
I1104 10:29:03.140249 21478 layer_factory.hpp:77] Creating layer roi-data
I1104 10:29:03.140588 21478 net.cpp:106] Creating Layer roi-data
I1104 10:29:03.140595 21478 net.cpp:454] roi-data <- rpn_rois
I1104 10:29:03.140599 21478 net.cpp:454] roi-data <- gt_boxes_input-data_2_split_1
I1104 10:29:03.140604 21478 net.cpp:411] roi-data -> rois
I1104 10:29:03.140609 21478 net.cpp:411] roi-data -> labels
I1104 10:29:03.140614 21478 net.cpp:411] roi-data -> bbox_targets
I1104 10:29:03.140619 21478 net.cpp:411] roi-data -> bbox_inside_weights
I1104 10:29:03.140624 21478 net.cpp:411] roi-data -> bbox_outside_weights
I1104 10:29:03.140858 21478 net.cpp:150] Setting up roi-data
I1104 10:29:03.140866 21478 net.cpp:157] Top shape: 1 5 (5)
I1104 10:29:03.140871 21478 net.cpp:157] Top shape: 1 1 (1)
I1104 10:29:03.140873 21478 net.cpp:157] Top shape: 1 12 (12)
I1104 10:29:03.140877 21478 net.cpp:157] Top shape: 1 12 (12)
I1104 10:29:03.140879 21478 net.cpp:157] Top shape: 1 12 (12)
I1104 10:29:03.140882 21478 net.cpp:165] Memory required for data: 1137909280
I1104 10:29:03.140887 21478 layer_factory.hpp:77] Creating layer roi_pool5
I1104 10:29:03.140892 21478 net.cpp:106] Creating Layer roi_pool5
I1104 10:29:03.140895 21478 net.cpp:454] roi_pool5 <- conv5_3_relu5_3_0_split_1
I1104 10:29:03.140900 21478 net.cpp:454] roi_pool5 <- rois
I1104 10:29:03.140903 21478 net.cpp:411] roi_pool5 -> pool5
I1104 10:29:03.140909 21478 roi_pooling_layer.cpp:30] Spatial scale: 0.0625
I1104 10:29:03.140935 21478 net.cpp:150] Setting up roi_pool5
I1104 10:29:03.140939 21478 net.cpp:157] Top shape: 1 512 7 7 (25088)
I1104 10:29:03.140943 21478 net.cpp:165] Memory required for data: 1138009632
I1104 10:29:03.140945 21478 layer_factory.hpp:77] Creating layer fc6
I1104 10:29:03.140949 21478 net.cpp:106] Creating Layer fc6
I1104 10:29:03.140952 21478 net.cpp:454] fc6 <- pool5
I1104 10:29:03.140955 21478 net.cpp:411] fc6 -> fc6
I1104 10:29:03.312048 21478 net.cpp:150] Setting up fc6
I1104 10:29:03.312075 21478 net.cpp:157] Top shape: 1 4096 (4096)
I1104 10:29:03.312078 21478 net.cpp:165] Memory required for data: 1138026016
I1104 10:29:03.312089 21478 layer_factory.hpp:77] Creating layer relu6
I1104 10:29:03.312098 21478 net.cpp:106] Creating Layer relu6
I1104 10:29:03.312103 21478 net.cpp:454] relu6 <- fc6
I1104 10:29:03.312108 21478 net.cpp:397] relu6 -> fc6 (in-place)
I1104 10:29:03.312114 21478 net.cpp:150] Setting up relu6
I1104 10:29:03.312117 21478 net.cpp:157] Top shape: 1 4096 (4096)
I1104 10:29:03.312119 21478 net.cpp:165] Memory required for data: 1138042400
I1104 10:29:03.312122 21478 layer_factory.hpp:77] Creating layer drop6
I1104 10:29:03.312126 21478 net.cpp:106] Creating Layer drop6
I1104 10:29:03.312129 21478 net.cpp:454] drop6 <- fc6
I1104 10:29:03.312134 21478 net.cpp:397] drop6 -> fc6 (in-place)
I1104 10:29:03.312150 21478 net.cpp:150] Setting up drop6
I1104 10:29:03.312155 21478 net.cpp:157] Top shape: 1 4096 (4096)
I1104 10:29:03.312157 21478 net.cpp:165] Memory required for data: 1138058784
I1104 10:29:03.312160 21478 layer_factory.hpp:77] Creating layer fc7
I1104 10:29:03.312165 21478 net.cpp:106] Creating Layer fc7
I1104 10:29:03.312167 21478 net.cpp:454] fc7 <- fc6
I1104 10:29:03.312171 21478 net.cpp:411] fc7 -> fc7
I1104 10:29:03.339221 21478 net.cpp:150] Setting up fc7
I1104 10:29:03.339249 21478 net.cpp:157] Top shape: 1 4096 (4096)
I1104 10:29:03.339252 21478 net.cpp:165] Memory required for data: 1138075168
I1104 10:29:03.339259 21478 layer_factory.hpp:77] Creating layer relu7
I1104 10:29:03.339267 21478 net.cpp:106] Creating Layer relu7
I1104 10:29:03.339270 21478 net.cpp:454] relu7 <- fc7
I1104 10:29:03.339274 21478 net.cpp:397] relu7 -> fc7 (in-place)
I1104 10:29:03.339282 21478 net.cpp:150] Setting up relu7
I1104 10:29:03.339284 21478 net.cpp:157] Top shape: 1 4096 (4096)
I1104 10:29:03.339288 21478 net.cpp:165] Memory required for data: 1138091552
I1104 10:29:03.339293 21478 layer_factory.hpp:77] Creating layer drop7
I1104 10:29:03.339300 21478 net.cpp:106] Creating Layer drop7
I1104 10:29:03.339304 21478 net.cpp:454] drop7 <- fc7
I1104 10:29:03.339308 21478 net.cpp:397] drop7 -> fc7 (in-place)
I1104 10:29:03.339325 21478 net.cpp:150] Setting up drop7
I1104 10:29:03.339329 21478 net.cpp:157] Top shape: 1 4096 (4096)
I1104 10:29:03.339332 21478 net.cpp:165] Memory required for data: 1138107936
I1104 10:29:03.339335 21478 layer_factory.hpp:77] Creating layer fc7_drop7_0_split
I1104 10:29:03.339339 21478 net.cpp:106] Creating Layer fc7_drop7_0_split
I1104 10:29:03.339341 21478 net.cpp:454] fc7_drop7_0_split <- fc7
I1104 10:29:03.339344 21478 net.cpp:411] fc7_drop7_0_split -> fc7_drop7_0_split_0
I1104 10:29:03.339350 21478 net.cpp:411] fc7_drop7_0_split -> fc7_drop7_0_split_1
I1104 10:29:03.339373 21478 net.cpp:150] Setting up fc7_drop7_0_split
I1104 10:29:03.339377 21478 net.cpp:157] Top shape: 1 4096 (4096)
I1104 10:29:03.339380 21478 net.cpp:157] Top shape: 1 4096 (4096)
I1104 10:29:03.339382 21478 net.cpp:165] Memory required for data: 1138140704
I1104 10:29:03.339385 21478 layer_factory.hpp:77] Creating layer cls_score
I1104 10:29:03.339391 21478 net.cpp:106] Creating Layer cls_score
I1104 10:29:03.339401 21478 net.cpp:454] cls_score <- fc7_drop7_0_split_0
I1104 10:29:03.339404 21478 net.cpp:411] cls_score -> cls_score
I1104 10:29:03.339715 21478 net.cpp:150] Setting up cls_score
I1104 10:29:03.339720 21478 net.cpp:157] Top shape: 1 3 (3)
I1104 10:29:03.339722 21478 net.cpp:165] Memory required for data: 1138140716
I1104 10:29:03.339726 21478 layer_factory.hpp:77] Creating layer bbox_pred
I1104 10:29:03.339731 21478 net.cpp:106] Creating Layer bbox_pred
I1104 10:29:03.339735 21478 net.cpp:454] bbox_pred <- fc7_drop7_0_split_1
I1104 10:29:03.339738 21478 net.cpp:411] bbox_pred -> bbox_pred
I1104 10:29:03.340701 21478 net.cpp:150] Setting up bbox_pred
I1104 10:29:03.340706 21478 net.cpp:157] Top shape: 1 12 (12)
I1104 10:29:03.340708 21478 net.cpp:165] Memory required for data: 1138140764
I1104 10:29:03.340713 21478 layer_factory.hpp:77] Creating layer loss_cls
I1104 10:29:03.340718 21478 net.cpp:106] Creating Layer loss_cls
I1104 10:29:03.340721 21478 net.cpp:454] loss_cls <- cls_score
I1104 10:29:03.340724 21478 net.cpp:454] loss_cls <- labels
I1104 10:29:03.340728 21478 net.cpp:411] loss_cls -> loss_cls
…
